data/data3/checkpoint.pth (torch, 123490 bytes, 18 tensors)

fc1.weight f4 [24, 9]
0.111357406 0.028600208 -0.097847074 0.019650282 0.1945378 0.3702835 0.15693782 0.17509413
0.08538445 0.019143214 -0.060163226 -0.15652016 0.20089619 -0.19354783 0.04925301 -0.3561196
0.036091335 0.0066307243 0.055508997 0.03544499 -0.24084525 -0.056927316 -0.21828833 -0.43566793
-0.022021865 -0.3772324 -0.15964909 0.10235275 0.1316972 0.14599486 -0.0017846897 -0.68728423
-0.09601418 -0.103820466 -0.3078003 -0.40094313 -0.2986029 0.056736868 -0.2820763 -0.22609338
0.29809874 0.1265779 -0.020859122 -0.22683088 -0.23974495 -0.30170602 0.017276248 -0.15829933
-0.18403833 -0.16392529 -0.17426798 -0.013698181 -0.026848357 -0.23917782 -0.2627879 0.11463269
-0.10065018 -0.034037154 0.04228646 -0.17180908 0.10340039 -0.21114321 -0.02532712 -0.307499
0.11321333 -0.13382126 -0.2966078 -0.23439325 -0.2224828 -0.32580954 -0.13998455 -0.27894834
-0.17414948 -0.3298604 0.3024343 0.16218114 -0.22234929 0.029584926 -0.19485947 -0.110835075
-0.24736881 0.03809275 0.002801197 -0.06729042 -0.045742884 -0.30069634 -0.31532136 -0.31439185
-0.38000792 -0.18587871 0.03495434 0.011254549 -0.08144221 0.035203394 -0.19838539 -0.13942353
-0.1914283 -0.05193056 -0.10459535 0.08809288 -0.19342422 0.091176435 -0.22161946 0.1248459
-0.002170284 -0.7703555 -0.3331107 -0.23697798 0.00015949988 0.011133518 -0.09042942 0.12396697
-0.22647749 -0.28664207 0.12149295 -0.06308716 -0.07762999 -0.18894702 0.14374717 -0.35114944
-0.34398797 -0.04099556 0.059015367 0.16997817 -0.2465468 -0.26793787 -0.091072604 -0.2850241
0.10641249 0.17470345 -0.010953784 0.05947741 -0.022195658 0.28368706 -0.14236371 -0.0872465
-0.032703005 -0.20536105 -0.04906746 0.14456034 -0.04274591 0.13523519 -0.27150235 -0.32972428
-0.30402577 0.08910501 -0.32861996 0.051667254 -0.22463524 -0.07581886 -0.09056505 -0.19258039
-0.012192845 -0.23852047 0.087742716 -0.33137497 -0.070053145 -0.12857275 0.20598516 0.17550518
-0.07554831 -0.2209132 0.07216174 0.04645468 -0.12765771 -0.0303666 -0.27417395 0.2399331
-5.8635737e-06 -0.26737538 -0.17551525 0.0146004055 -0.18719439 -0.33771762 0.22089493 0.08832411
-0.16380128 0.15006511 0.05016907 0.24535157 -0.02825353 0.022489874 0.22070621 0.16226958
0.30582196 -0.034104444 0.09800805 -0.0016775595 0.25242877 -0.020575842 -0.2734097 0.23203719
-0.2751372 0.15623848 -0.22994244 -0.20395887 0.16150558 -0.00810802 0.059476864 -0.08792529
-0.19101441 0.03984571 -0.110201985 0.17891228 -0.6711508 -0.25852564 -0.11080035 -0.0065284944
-0.03559479 0.3161151 -0.27020735 0.18763451 0.1966655 -0.22381838 0.018740822 -0.105641216
00000000: 5a0f e43d fc4a ea3c 0c64 c8bd a1f9 a03c
00000010: eb34 473e cd95 bd3e 4fb4 203e e04b 333e
00000020: 0bde ae3d 3bd2 9c3c b76d 76bd d246 20be
00000030: bbb7 4d3e 6731 46be 86bd 493d 4f55 b6be
00000040: 82d4 133d 8c46 d93b 675d 633d c42e 113d
00000050: 23a0 76be 9e2c 69bd fa86 5fbe de0f dfbe
00000060: 3367 b4bc 9b24 c1be 0d7b 23be 529e d13d
00000070: a1db 063e ad7f 153e 40ec e9ba dcf1 2fbf
00000080: 15a3 c4bd d39f d4bd 0098 9dbe 6b48 cdbe
00000090: 7be2 98be eb64 683d 4e6c 90be 0685 67be
000000a0: 66a0 983e a39d 013e c0e0 aabc 5b46 68be
000000b0: b37f 75be 3679 9abe eb86 8d3c 3819 22be
000000c0: 8b74 3cbe 08dc 27be 4e73 32be 566e 60bc
000000d0: 16f1 dbbc 08eb 74be 238c 86be 8bc4 ea3d
000000e0: ae21 cebd 8b6a 0bbd 9134 2d3d b8ee 2fbe
000000f0: 95c3 d33d ed35 58be d27a cfbc 8270 9dbe
00000100: 64dc e73d 7108 09be fadc 97be c904 70be
00000110: 88d2 63be 82d0 a6be 1c58 0fbe 51d2 8ebe
00000120: 3e54 32be 76e3 a8be abd8 9a3e d012 263e
00000130: 88af 63be 165c f23c 3e89 47be 80fd e2bd
00000140: 404e 7dbe 2507 1c3d 4a94 373b 8fcf 89bd
00000150: e45c 3bbd dff4 99be cd71 a1be f8f7 a0be
00000160: 6690 c2be fd56 3ebe 482c 0f3d 0065 383c
00000170: 2ccb a6bd 6f31 103d 8a25 4bbe 0bc5 0ebe
00000180: c805 44be 24b5 54bd 1636 d6bd 0a6a b43d
00000190: 0011 46be b6ba ba3d 36f0 62be 35af ff3d
000001a0: 533b 0ebb 0536 45bf 7c8d aabe 5baa 72be
000001b0: 6c3f 2739 5c69 363c 0f33 b9bd 65e2 fd3d
000001c0: b7e9 67be c0c2 92be 4cd1 f83d d733 81bd
000001d0: 79fc 9ebd 547b 41be 7532 133e dcc9 b3be
000001e0: 311f b0be f6ea 27bd 19ba 713d c20e 2e3e
000001f0: c476 7cbe 272f 89be 4684 babd aeee 91be
00000200: cbee d93d 76e5 323e 8077 33bc 969e 733d
00000210: abd3 b5bc 6e3f 913e cbc7 11be 4bae b2bd
00000220: 96f3 05bd 2b4a 52be f6fa 48bd a007 143e
00000230: 5616 2fbd 187b 0a3e 5b02 8bbe 9fd1 a8be
00000240: 44a9 9bbe b07c b63d e040 a8be 0ba1 533d
00000250: c806 66be eb46 9bbd 2b7a b9bd cb33 45be
00000260: 80c4 47bc b63e 74be 74b2 b33d fba9 a9be
00000270: 0678 8fbd 93a8 03be c6ed 523e a1b7 333e
00000280: 13b9 9abd 1237 62be 89c9 933d 4347 3e3d
00000290: b4b8 02be 60c3 f8bc 8760 8cbe 06b1 753e
000002a0: b7bf c4b6 6de5 88be 45ba 33be 8a36 6f3c
000002b0: e3af 3fbe 53e9 acbe 4832 623e 45e3 b43d
000002c0: 86bb 27be abaa 193e 157e 4d3d 713d 7b3e
000002d0: f273 e7bc af3c b83c cf00 623e ff29 263e
000002e0: b294 9c3e 1ab1 0bbd 72b8 c83d 8ee1 dbba
000002f0: 583e 813e ab8e a8bc 5bfc 8bbe 289b 6d3e
00000300: c8de 8cbe fbfc 1f3e 0876 6bbe 98da 50be
00000310: b861 253e 80d7 04bc 039e 733d 2d12 b4bd
00000320: 4899 43be 4135 233d 94b1 e1bd c834 373e
00000330: 8ad0 2bbf 795d 84be 4beb e2bd fbec d5bb
00000340: d8cb 11bd d7d9 a13e 9e58 8abe 4323 403e
00000350: ae62 493e a530 65be 5a86 993c 6c5a d8bd

fc1.bias f4 [24]
-0.028029941 0.17856812 -0.49047127 -0.40754366 -0.22548017 0.12942776 -0.18942763 -0.31703705
0.27838188 -0.5603518 -0.17492384 -0.6737998 0.104018845 0.08746129 -0.28851086 0.0144525375
0.1817503 0.20647328 -0.23780061 -0.15380582 -0.04089407 0.19862962 -0.31237748 0.26957762
00000000: 0c9f e5bc 90da 363e 0d1f fbbe 90a9 d0be
00000010: 46e4 66be b688 043e 51f9 41be ae52 a2be
00000020: 1288 8e3e 3773 0fbf 3c1f 33be 257e 2cbf
00000030: d507 d53d e81e b33d b2b7 93be 56ca 6c3c
00000040: c01c 3a3e bb6d 533e 0182 73be 467f 1dbe
00000050: 8a80 27bd 9065 4b3e f1ef 9fbe 1406 8a3e

fc2.weight f4 [24, 24]
0.033727437 -0.22477241 -0.08927183 -0.047527727 0.16104275 0.1451629 0.14284775 -0.057200674
0.0683716 -0.020481382 0.0041017793 -0.21700813 -0.26771408 -0.106722236 -0.094675645 0.111005805
0.1737256 0.16214931 -0.0069465037 -0.11626338 -0.17328617 0.15961255 0.03301074 -0.059936464
0.039987456 -0.08600539 -0.05852088 -0.04612387 0.03465345 0.18484636 -0.0050272397 -0.021527696
0.11350417 -0.016293947 -0.22875763 -0.18870191 0.022161061 -0.18929473 0.1310425 -0.09959856
0.11926077 0.19584864 0.103647694 -0.07620801 -0.25030506 -0.01684041 -0.11193024 -0.11548022
-0.15284874 0.03541038 0.03428161 -0.15938592 -0.19013362 0.12633906 0.07866943 0.12242184
-0.14386782 0.041856647 0.026560944 -0.059818298 -0.01597702 0.058393322 -0.08191844 -0.014928526
-0.15080424 0.009410955 0.0010730346 -0.026726842 -0.009991731 0.10456117 -0.06775599 0.024781816
0.047907982 -0.12929645 -0.08039857 -0.08869528 0.16701075 0.03164717 0.043004002 0.1792956
-0.13297068 -0.084511295 -0.08687354 0.09116317 -0.1248527 0.120301515 0.17642312 -0.13275109
-0.07108138 -0.19411905 -0.21806844 0.083196454 -0.30898106 -0.034274068 0.19024506 0.009447455
-0.16287619 -0.04933322 0.12259689 -0.020826228 0.028109372 -0.038866747 0.049156748 -0.080724545
0.18303248 0.082358286 0.06559128 -0.12548937 -0.20820823 0.14313218 0.1259027 0.0008361719
0.13577239 0.19422948 -0.03641047 -0.06548132 0.07184449 -0.08913812 -0.047944035 0.10273792
-0.13822986 0.111378565 -0.09507202 -0.11482495 0.16427681 -0.070865706 -0.12050201 -0.035961766
0.12590139 -0.067990474 -0.021762583 0.12762617 0.13651046 0.14861129 0.16925311 0.15959458
-0.035434168 -0.20073457 -0.03198906 -0.012228267 -0.007948536 -0.15160283 -0.13889563 -0.07592182
-0.02481817 0.09394658 -0.17423373 0.11586771 -0.05468087 -0.04467542 0.04914749 -0.14612997
0.20341721 0.021415241 0.016589591 -0.1750787 0.036959093 -0.010186947 0.05060783 -0.20075528
0.0031500927 -0.085390344 -0.12087434 -0.08897395 -0.01806846 0.072097786 0.029162193 -0.06942641
0.02516761 0.10121846 0.056702998 0.015387652 -0.14365765 -0.20268351 -0.1588775 -0.089908615
-0.03199541 -0.22869568 -0.22174808 0.12972553 0.019161712 0.09687433 0.04936631 0.09926684
-0.10292333 -0.038467634 -0.23092003 -0.039656386 -0.040063582 -0.021962075 0.017615756 -0.12613747
-0.09431074 -0.19993713 -0.1122557 -0.20722489 0.035599757 -0.058814738 0.08449884 -0.18298772
0.17145465 -0.19699684 -0.1797826 -0.11956852 -0.11940098 -0.12033884 -0.15071891 0.1826368
0.18344453 -0.013876565 0.08179337 0.005463744 0.03140793 -0.16167463 0.06748289 -0.08955393
-0.15381593 0.078736916 0.17960685 -0.1150946 0.16999847 0.10091945 -0.0154865235 -0.01822645
0.092998505 0.1012771 0.10204146 0.024463559 0.13179266 0.12994614 -0.13571163 -0.012727975
-0.12144721 0.18630758 -0.012097583 -0.14584921 -0.13478933 -0.08488202 0.03777914 -0.044498816
-0.029006744 0.1397352 -0.045273773 -0.08064441 0.18608607 -0.080604754 0.026999367 0.045202557
0.027628446 -0.023135655 -0.012712768 -0.15332627 0.1164853 -0.1618107 0.1658776 0.1534114
00000000: c825 0a3d bd2a 66be 26d4 b6bd 6fac 42bd
00000010: 64e8 243e 95a5 143e ae46 123e 414b 6abd
00000020: 6906 8c3d 92c8 a7bc 3868 863b 6137 5ebe
00000030: d211 89be 3091 dabd 4ee5 c1bd 0357 e33d
00000040: 20e5 313e 780a 263e 7f9f e3bb 7f1b eebd
00000050: ee71 31be 7971 233e 4536 073d f07f 75bd
00000060: e3c9 233d 9823 b0bd 97b3 6fbd 62ec 3cbd
00000070: c7f0 0d3d 5d48 3d3e 8bbb a4bb da5a b0bc
00000080: e074 e83d e27a 85bc 713f 6abe 133b 41be
00000090: 1d8b b53c 7ad6 41be 0130 063e 54fa cbbd
000000a0: fe3e f43d 8c8c 483e 3e45 d43d f212 9cbd
000000b0: fc27 80be e6f4 89bc af3b e5bd e580 ecbd
000000c0: 6184 1cbe 7a0a 113d e06a 0c3d 1036 23be
000000d0: 63b2 42be 075f 013e 701d a13d 4db8 fa3d
000000e0: 1652 13be e071 2b3d 5696 d93c 0804 75bd
000000f0: 3de2 82bc d62d 6f3d dbc4 a7bd c796 74bc
00000100: 6d6c 1abe 6830 1a3c 11a5 8c3a 40f2 dabc
00000110: 5bb4 23bc 2b24 d63d a7c3 8abd 3c03 cb3c
00000120: 293b 443d 4a66 04be 01a8 a4bd dfa5 b5bd
00000130: de04 2b3e 77a0 013d f724 303d 4499 373e
00000140: 7729 08be 4214 adbd c1ea b1bd c2b3 ba3d
00000150: c6b2 ffbd a460 f63d 43a8 343e e7ef 07be
00000160: 1d93 91bd 25c7 46be 554d 5fbe e762 aa3d
00000170: c432 9ebe f762 0cbd 9acf 423e 80c9 1a3c
00000180: 04c9 26be a111 4abd 1414 fb3d c49b aabc
00000190: a045 e63c bd32 1fbd 9658 493d e952 a5bd
000001a0: de6c 3b3e 76ab a83d b954 863d 4980 00be
000001b0: 8a34 55be 3e91 123e a3ec 003e 8c32 5b3a
000001c0: eb07 0b3e 18e4 463e 2523 15bd 121b 86bd
000001d0: 3423 933d 0c8e b6bd f760 44bd 4268 d23d
000001e0: 218c 0dbe 721a e43d 1fb5 c2bd 5829 ebbd
000001f0: 2e38 283e 0a22 91bd c2c9 f6bd a54c 13bd
00000200: 4bec 003e 973e 8bbd 7247 b2bc 6fb0 023e
00000210: 66c9 0b3e 8f2d 183e b050 2d3e c36c 233e
00000220: 6b23 11bd 5d8d 4dbe f606 03bd 1259 48bc
00000230: 943a 02bc c63d 1bbe a83a 0ebe e67c 9bbd
00000240: 7a4f cbbc 1167 c03d 546a 32be 0d4c ed3d
00000250: 0cf9 5fbd 93fd 36bd e14e 493d 18a3 15be
00000260: 9a4c 503e 046f af3c e5e6 873c d547 33be
00000270: 6b62 173d 27e7 26bc 284a 4f3d cb92 4dbe
00000280: c971 4e3b 22e1 aebd f78c f7bd f937 b6bd
00000290: 4f04 94bc 01a8 933d 8de5 ee3c 6f2f 8ebd
000002a0: 4e2c ce3c a04b cf3d 6741 683d 7e1c 7c3c
000002b0: fe1a 13be 448c 4fbe c9b0 22be 0222 b8bd
000002c0: 9e0d 03bd 332f 6abe ee11 63be c5d6 043e
000002d0: 06f9 9c3c 0c66 c63d 5434 4a3d 6a4c cb3d
000002e0: 78c9 d2bd 3d90 1dbd 4d76 6cbe bc6e 22bd
000002f0: b619 24bd cfe9 b3bc eb4e 903c 2e2a 01be
00000300: fd25 c1bd 52bc 4cbe 51e6 e5bd c332 54be
00000310: 0dd1 113d b9e7 70bd ba0d ad3d 2261 3bbe
00000320: cf91 2f3e 8ab9 49be ee18 38be 57e0 f4bd
00000330: 8088 f4bd 3674 f6bd 0f56 1abe 2405 3b3e
00000340: e2d8 3b3e 885a 63bc 4883 a73d 3509 b33b
00000350: 9aa5 003d 098e 25be 7834 8a3d 0d68 b7bd
00000360: ec81 1dbe d240 a13d dcea 373e b8b6 ebbd
00000370: 1414 2e3e dbae ce3d 30bb 7dbc a34f 95bc
00000380: 0076 be3d 5e6a cf3d 1dfb d03d cd67 c83c
00000390: a8f4 063e 9a10 053e fdf7 0abe ff88 50bc
000003a0: 51b9 f8bd 6ac7 3e3e f134 46bc 7f59 15be
000003b0: 3706 0abe a0d6 adbd 4dbe 1a3d 6444 36bd
000003c0: 8d9f edbc bf16 0f3e fe70 39bd e528 a5bd
000003d0: 598d 3e3e 1b14 a5bd c72d dd3c 5126 393d
000003e0: 0d55 e23c fc86 bdbc 3749 50bc 9001 1dbe
000003f0: d88f ee3d b4b1 25be d1db 293e e117 1d3e

fc2.bias f4 [24]
-0.22863053 0.088313565 0.13985896 -0.059591386 -0.3553005 0.09272888 -0.37410513 0.19861595
-0.015521254 0.10177782 -0.017949555 -0.13999045 -0.111432716 0.00756758 -0.13428473 -0.5435676
-0.0045553353 0.0796325 -0.3213139 -0.2505313 -0.07490834 -0.33347312 0.0126484195 -0.091883145
00000000: 1f1e 6abe bedd b43d 3037 0f3e 1916 74bd
00000010: f2e9 b5be a4e8 bd3d b58a bfbe fb61 4b3e
00000020: dc4c 7ebc e470 d03d f20a 93bc a859 0fbe
00000030: d636 e4bd 76f9 f73b f081 09be 3f27 0bbf
00000040: ec44 95bb 5d16 a33d 4183 a4be a345 80be
00000050: 8b69 99bd fdbc aabe 513b 4f3c 3b2d bcbd

fc3.weight f4 [5, 24]
-0.009245628 0.03102563 -0.039141685 0.03633597 -0.13099375 0.021194793 -0.06524416 0.0237509
0.09581997 -0.034303512 0.13313094 0.051991366 0.004432111 0.0799656 0.14901665 -0.0020193642
0.02980054 0.011298191 -0.105562635 -0.010814566 0.08047192 -0.06317173 0.103868425 -0.004917223
0.036782403 0.011342795 0.016640317 0.041433964 0.04606662 0.044031803 0.12932083 0.00070655183
-0.10068362 0.049166035 0.005641788 -0.0826271 0.016148018 -0.0027055382 0.16074693 0.00015230374
-0.09760695 -0.024572015 -0.113808416 0.00041464024 -0.13822015 0.045656998 -0.041095294 -0.021618681
0.011242096 -0.03321815 -0.011388581 -0.0047979667 0.109689616 -0.045530014 -0.10609875 0.03426158
0.08785451 -0.06545263 -0.047761917 0.062273342 0.16081029 0.017614283 0.053112634 -0.0080075115
-0.092544764 -0.07290815 -0.06319044 -0.017864196 0.055377245 -0.015968215 -0.028758114 0.0049212673
0.05237328 -0.015402727 -0.13342048 0.033712413 0.14022791 0.0980843 0.066845275 0.038164042
0.099863455 0.03515218 -0.05946312 -0.10479552 0.08661413 -0.01980032 0.023380935 -0.0032130568
-0.09473379 -0.051951572 -0.09285734 -0.017446049 0.18863939 -0.16038722 -0.14246541 -0.01833987
0.009920755 -0.048183065 0.064585105 0.0018931812 0.12654604 -0.020840894 0.1292483 0.10765438
0.06715052 -0.14866592 -0.090161644 0.04628649 0.15077473 -0.13970414 -0.09588959 -0.03364727
0.0047463733 -0.122206345 -0.09825475 -0.06162922 -0.02524472 0.14612079 0.010447165 0.09179014
00000000: f97a 17bc 7629 fe3c 0853 20bd 07d5 143d
00000010: 3a23 06be b4a0 ad3c bb9e 85bd 3f91 c23c
00000020: 433d c43d d781 0cbd 7a53 083e e6f4 543d
00000030: 3e3b 913b 01c5 a33d d297 183e 4f57 04bb
00000040: 4320 f43c 0c1c 393c 3931 d8bd 942f 31bc
00000050: 76ce a43d 2e60 81bd f8b8 d43d a820 a1bb
00000060: 25a9 163d 21d7 393c 4651 883c a9b6 293d
00000070: 5ab0 3c3d b15a 343d ae6c 043e e437 393a
00000080: 3733 cebd 5362 493d bfde b83b 6638 a9bd
00000090: d948 843c 664f 31bb d89a 243e b9b3 1f39
000000a0: 27e6 c7bd 404b c9bc 6314 e9bd 1264 d939
000000b0: 9589 0dbe d502 3b3d 8a53 28bd a919 b1bc
000000c0: c530 383c c10f 08bd 2c97 3abc 4338 9dbb
000000d0: f3a4 e03d ae7d 3abd 4d4a d9bd df55 0c3d
000000e0: 11ed b33d 070c 86bd 00a2 43bd 5512 7f3d
000000f0: 74ab 243e d44b 903c a28c 593d f031 03bc
00000100: 1c88 bdbd de50 95bd fd69 81bd ef57 92bc
00000110: 40d3 623d c6cf 82bc 2396 ebbc 9542 a13b
00000120: 5d85 563d b85b 7cbc 619f 08be 0716 0a3d
00000130: e897 0f3e 6ce0 c83d 2de6 883d e651 1c3d
00000140: 3685 cc3d bbfb 0f3d 9a8f 73bd 099f d6bd
00000150: c062 b13d 4834 a2bc 6089 bf3c 2692 52bb
00000160: ca03 c2bd 2ccb 54bd fd2b bebd 04eb 8ebc
00000170: af2a 413e 8c3c 24be 74e2 11be 7f3d 96bc
00000180: aa8a 223c 9b5b 45bd 3245 843d 9f24 f83a
00000190: 4995 013e 86ba aabc ab59 043e e679 dc3d
000001a0: 3686 893d e13b 18be aba6 b8bd e796 3d3d
000001b0: b164 1a3e 9a0e 0fbe c361 c4bd b8d1 09bd
000001c0: 7787 9b3b 5247 fabd c939 c9bd ec6e 7cbd
000001d0: 04ce cebc b0a0 153e 962a 2b3c 78fc bb3d

fc3.bias f4 [5]
1.247648 1.1781327 1.460006 1.4830493 2.5424862
00000000: eeb2 9f3f 0dcd 963f 7ae1 ba3f 8fd4 bd3f
00000010: 18b8 2240

exp_avg f4 [24, 9]
6e-45 6e-45 6e-45 6e-45 6e-45 6e-45 6e-45 6e-45
6e-45 6e-45 6e-45 6e-45 6e-45 6e-45 6e-45 6e-45
6e-45 6e-45 6e-45 6e-45 6e-45 6e-45 6e-45 6e-45
6e-45 6e-45 6e-45 6e-45 6e-45 6e-45 6e-45 6e-45
6e-45 6e-45 6e-45 6e-45 0.0 0.0 0.0 0.0
0.0 0.0 0.0 0.0 0.0 0.0 0.0 0.0
0.0 0.0 0.0 0.0 0.0 0.0 6e-45 6e-45
6e-45 6e-45 6e-45 6e-45 6e-45 6e-45 6e-45 6e-45
6e-45 6e-45 6e-45 6e-45 6e-45 6e-45 6e-45 6e-45
0.0 0.0 0.0 0.0 0.0 0.0 0.0 0.0
0.0 -6e-45 -6e-45 -6e-45 -6e-45 -6e-45 -6e-45 -6e-45
-6e-45 -6e-45 -6e-45 -6e-45 -6e-45 -6e-45 -6e-45 -6e-45
-6e-45 -6e-45 -6e-45 6e-45 6e-45 6e-45 6e-45 6e-45
6e-45 6e-45 6e-45 6e-45 -6e-45 -6e-45 -6e-45 -6e-45
-6e-45 -6e-45 -6e-45 -6e-45 -6e-45 -6e-45 -6e-45 -6e-45
-6e-45 -6e-45 -6e-45 -6e-45 -6e-45 -6e-45 0.0 0.0
0.0 0.0 0.0 0.0 0.0 0.0 0.0 0.0
0.0 0.0 0.0 0.0 0.0 0.0 0.0 0.0
0.0 0.0 0.0 0.0 0.0 0.0 0.0 0.0
0.0 6e-45 6e-45 6e-45 6e-45 6e-45 6e-45 6e-45
6e-45 6e-45 -6e-45 -6e-45 -6e-45 -6e-45 -6e-45 -6e-45
-6e-45 -6e-45 -6e-45 6e-45 6e-45 6e-45 6e-45 6e-45
6e-45 6e-45 6e-45 6e-45 -6e-45 -6e-45 -6e-45 -6e-45
-6e-45 -6e-45 -6e-45 -6e-45 -6e-45 0.0 0.0 0.0
0.0 0.0 0.0 0.0 0.0 0.0 6e-45 6e-45
6e-45 6e-45 6e-45 6e-45 6e-45 6e-45 6e-45 6e-45
6e-45 6e-45 6e-45 6e-45 6e-45 6e-45 6e-45 6e-45
00000000: 0400 0000 0400 0000 0400 0000 0400 0000
00000010: 0400 0000 0400 0000 0400 0000 0400 0000
00000020: 0400 0000 0400 0000 0400 0000 0400 0000
00000030: 0400 0000 0400 0000 0400 0000 0400 0000
00000040: 0400 0000 0400 0000 0400 0000 0400 0000
00000050: 0400 0000 0400 0000 0400 0000 0400 0000
00000060: 0400 0000 0400 0000 0400 0000 0400 0000
00000070: 0400 0000 0400 0000 0400 0000 0400 0000
00000080: 0400 0000 0400 0000 0400 0000 0400 0000
00000090: 0000 0000 0000 0000 0000 0000 0000 0000
000000a0: 0000 0000 0000 0000 0000 0000 0000 0000
000000b0: 0000 0000 0000 0000 0000 0000 0000 0000
000000c0: 0000 0000 0000 0000 0000 0000 0000 0000
000000d0: 0000 0000 0000 0000 0400 0000 0400 0000
000000e0: 0400 0000 0400 0000 0400 0000 0400 0000
000000f0: 0400 0000 0400 0000 0400 0000 0400 0000
00000100: 0400 0000 0400 0000 0400 0000 0400 0000
00000110: 0400 0000 0400 0000 0400 0000 0400 0000
00000120: 0000 0000 0000 0000 0000 0000 0000 0000
00000130: 0000 0000 0000 0000 0000 0000 0000 0000
00000140: 0000 0000 0400 0080 0400 0080 0400 0080
00000150: 0400 0080 0400 0080 0400 0080 0400 0080
00000160: 0400 0080 0400 0080 0400 0080 0400 0080
00000170: 0400 0080 0400 0080 0400 0080 0400 0080
00000180: 0400 0080 0400 0080 0400 0080 0400 0000
00000190: 0400 0000 0400 0000 0400 0000 0400 0000
000001a0: 0400 0000 0400 0000 0400 0000 0400 0000
000001b0: 0400 0080 0400 0080 0400 0080 0400 0080
000001c0: 0400 0080 0400 0080 0400 0080 0400 0080
000001d0: 0400 0080 0400 0080 0400 0080 0400 0080
000001e0: 0400 0080 0400 0080 0400 0080 0400 0080
000001f0: 0400 0080 0400 0080 0000 0000 0000 0000
00000200: 0000 0000 0000 0000 0000 0000 0000 0000
00000210: 0000 0000 0000 0000 0000 0000 0000 0000
00000220: 0000 0000 0000 0000 0000 0000 0000 0000
00000230: 0000 0000 0000 0000 0000 0000 0000 0000
00000240: 0000 0000 0000 0000 0000 0000 0000 0000
00000250: 0000 0000 0000 0000 0000 0000 0000 0000
00000260: 0000 0000 0400 0000 0400 0000 0400 0000
00000270: 0400 0000 0400 0000 0400 0000 0400 0000
00000280: 0400 0000 0400 0000 0400 0080 0400 0080
00000290: 0400 0080 0400 0080 0400 0080 0400 0080
000002a0: 0400 0080 0400 0080 0400 0080 0400 0000
000002b0: 0400 0000 0400 0000 0400 0000 0400 0000
000002c0: 0400 0000 0400 0000 0400 0000 0400 0000
000002d0: 0400 0080 0400 0080 0400 0080 0400 0080
000002e0: 0400 0080 0400 0080 0400 0080 0400 0080
000002f0: 0400 0080 0000 0000 0000 0000 0000 0000
00000300: 0000 0000 0000 0000 0000 0000 0000 0000
00000310: 0000 0000 0000 0000 0400 0000 0400 0000
00000320: 0400 0000 0400 0000 0400 0000 0400 0000
00000330: 0400 0000 0400 0000 0400 0000 0400 0000
00000340: 0400 0000 0400 0000 0400 0000 0400 0000
00000350: 0400 0000 0400 0000 0400 0000 0400 0000

exp_avg_sq f4 [24, 9]
703318.25 8719.935 7.747172e-08 96.64425 204.17223 7.554737e-09 1.0749994e-09 1.4534096e-08
299.12192 657689.3 191520.0 1.6209759e-06 31.480669 106.41422 5.104232e-09 1.07329826e-10
1.5237461e-08 159.54091 1.9074672e+06 138943.23 1.1614741e-06 283.053 565.9616 2.0244906e-08
2.7009681e-09 3.67396e-08 774.51843 6.76782e+06 66041.375 5.527138e-07 190.69403 1111.6855
6.0973e-08 2.292673e-09 7.3141216e-08 1085.7474 0.0 0.0 0.0 0.0
0.0 0.0 0.0 0.0 0.0 0.0 0.0 0.0
0.0 0.0 0.0 0.0 0.0 0.0 5.437339 13.201404
1.665284e-10 0.102191895 0.14319515 1.6727508e-12 5.6909875e-13 1.3218022e-11 0.7095664 0.05193182
0.26567984 1.2805937e-11 1.6929994e-06 4.3684648e-07 1.6463217e-17 1.7591634e-17 1.9090451e-16 1.289673e-05
0.0 0.0 0.0 0.0 0.0 0.0 0.0 0.0
0.0 485594.34 35729.344 2.8888704e-07 80.89627 239.01399 8.741978e-09 1.1362817e-09
1.6801588e-08 274.26285 8.3017115e+06 648879.4 5.65226e-06 458.68234 1542.6616 7.394972e-08
7.237038e-09 1.0053e-07 1735.8706 189584.8 1397.2277 8.888671e-09 38.51242 103.85997
3.755424e-09 8.6453e-11 6.8763497e-09 92.99686 753739.7 363838.22 3.073912e-06 196.02817
401.77454 1.1427178e-08 4.2075325e-09 2.4364363e-08 700.6371 77896.98 253521.5 1.9005513e-06
0.8154736 1.2145747 1.0076721e-11 4.5301728e-11 3.239269e-11 2.2873254 0.0 0.0
0.0 0.0 0.0 0.0 0.0 0.0 0.0 0.0
0.0 0.0 0.0 0.0 0.0 0.0 0.0 0.0
0.0 0.0 0.0 0.0 0.0 0.0 0.0 0.0
0.0 1.9357894e-05 7.29782e-05 7.5008886e-16 4.0212547e-07 6.3660144e-07 8.380072e-18 4.0433283e-18
3.4373666e-18 2.2780695e-07 230807.7 125212.375 8.71877e-07 69.38758 131.70593 3.841979e-09
3.4566672e-10 9.030553e-09 204.4986 5.428289e+06 7806.3447 1.6120318e-07 132.65363 905.3636
5.1544593e-08 8.574518e-10 7.841976e-08 825.88947 13473.751 449.03387 6.042089e-09 14.7547245
30.181662 9.202049e-10 4.6356106e-11 5.190098e-09 91.637405 0.0 0.0 0.0
0.0 0.0 0.0 0.0 0.0 0.0 982666.3 5560.2407
5.984353e-08 75.33095 201.16689 8.919219e-09 6.5710376e-10 1.5005414e-08 216.73134 0.011839268
0.00022069585 1.6476917e-15 3.4604752e-06 1.3970142e-05 3.9396794e-16 8.240004e-18 4.306377e-16 8.3132445e-06
00000000: 64b5 2b49 bd3f 0846 875e a633 db49 c142
00000010: 172c 4c43 16ca 0132 2ebf 9330 a1b1 7932
00000020: 9b8f 9543 9591 2049 0008 3b48 4f90 d935
00000030: 69d8 fb41 15d4 d442 4d61 af31 5205 ec2e
00000040: 88e3 8232 798a 1f43 5ad8 e849 cfaf 0748
00000050: f2e3 9b35 c986 8d43 8b7d 0d44 05e7 ad32
00000060: ef9b 3931 9ecb 1d33 2ea1 4144 9889 ce4a
00000070: b0fc 8047 345e 1435 acb1 3e43 f0f5 8a44
00000080: 43f0 8233 218d 1d31 cf11 9d33 ebb7 8744
00000090: 0000 0000 0000 0000 0000 0000 0000 0000
000000a0: 0000 0000 0000 0000 0000 0000 0000 0000
000000b0: 0000 0000 0000 0000 0000 0000 0000 0000
000000c0: 0000 0000 0000 0000 0000 0000 0000 0000
000000d0: 0000 0000 0000 0000 aefe ad40 f338 5341
000000e0: 9419 372f fc49 d13d c0a1 123e 336b eb2b
000000f0: e32f 202b ae88 682d 25a6 353f 76b6 543d
00000100: 3007 883e d048 612d 043b e335 b987 ea34
00000110: acd8 9723 1241 a223 1119 5c25 095f 5837
00000120: 0000 0000 0000 0000 0000 0000 0000 0000
00000130: 0000 0000 0000 0000 0000 0000 0000 0000
00000140: 0000 0000 4b1b ed48 5891 0b47 5518 9b34
00000150: e4ca a142 9503 6f43 a02f 1632 5c2b 9c30
00000160: 1553 9032 a521 8943 1f59 fd4a f66a 1e49
00000170: 8ba8 bd36 5757 e543 2cd5 c044 4ace 9e33
00000180: a9a9 f831 f4e2 d733 dcfb d844 3324 3948
00000190: 49a7 ae44 cab4 1832 b80c 1a42 4eb8 cf42
000001a0: 0f09 8131 b61c be2e 0345 ec31 64fe b942
000001b0: bb04 3849 c7a7 b148 6849 4e36 3607 4443
000001c0: 24e3 c843 4351 4432 d991 9031 cd49 d132
000001d0: c628 2f44 7d24 9847 6094 7748 7216 ff35
000001e0: e1c2 503f 2f77 9b3f 8445 312d 363d 472e
000001f0: ed76 0e2e 8a63 1240 0000 0000 0000 0000
00000200: 0000 0000 0000 0000 0000 0000 0000 0000
00000210: 0000 0000 0000 0000 0000 0000 0000 0000
00000220: 0000 0000 0000 0000 0000 0000 0000 0000
00000230: 0000 0000 0000 0000 0000 0000 0000 0000
00000240: 0000 0000 0000 0000 0000 0000 0000 0000
00000250: 0000 0000 0000 0000 0000 0000 0000 0000
00000260: 0000 0000 c362 a237 df0b 9938 ca32 5826
00000270: b4e3 d734 ebe2 2a35 c595 1a23 282c 9522
00000280: 05a2 7d22 199b 7434 ed65 6148 308e f447
00000290: ee0a 6a35 71c6 8a42 b8b4 0343 6802 8431
000002a0: 4408 be2f cb24 1b32 a47f 4c43 82a8 a54a
000002b0: c2f2 f345 3117 2d34 54a7 0443 4557 6244
000002c0: e161 5d33 ceb1 6b30 b867 a833 ed78 4e44
000002d0: 0187 5246 5684 e043 c79a cf31 5a13 6c41
000002e0: 0b74 f141 aaf1 7c30 56e0 4b2e 9654 b231
000002f0: 5a46 b742 0000 0000 0000 0000 0000 0000
00000300: 0000 0000 0000 0000 0000 0000 0000 0000
00000310: 0000 0000 0000 0000 a5e8 6f49 edc1 ad45
00000320: 5483 8033 72a9 9642 b92a 4943 243b 1932
00000330: 919f 3430 41e5 8032 39bb 5843 7df9 413c
00000340: 976a 6739 1875 ed26 833a 6836 4e61 6a37
00000350: 681b e325 5200 1823 e83e f825 1d79 0b37

exp_avg f4 [24]
6e-45 6e-45 6e-45 6e-45 0.0 0.0 6e-45 6e-45
0.0 -6e-45 -6e-45 6e-45 -6e-45 -6e-45 0.0 0.0
0.0 6e-45 -6e-45 6e-45 -6e-45 0.0 6e-45 6e-45
00000000: 0400 0000 0400 0000 0400 0000 0400 0000
00000010: 0000 0000 0000 0000 0400 0000 0400 0000
00000020: 0000 0000 0400 0080 0400 0080 0400 0000
00000030: 0400 0080 0400 0080 0000 0000 0000 0000
00000040: 0000 0000 0400 0000 0400 0080 0400 0000
00000050: 0400 0080 0000 0000 0400 0000 0400 0000

exp_avg_sq f4 [24]
3.2695782e-10 8.196489e-11 8.060297e-10 1.1288445e-09 0.0 0.0 1.7253386e-13 2.8586085e-17
0.0 3.4940925e-10 2.3489513e-09 5.9620864e-11 1.0460425e-09 1.0700521e-11 0.0 0.0
0.0 1.1590207e-18 1.1768835e-10 7.534669e-10 2.1002833e-11 0.0 2.4341779e-10 8.175816e-18
00000000: 39bf b32f 223e b42e 4c8f 5d30 af25 9b30
00000010: 0000 0000 0000 0000 8041 422a 7ed4 0324
00000020: 0000 0000 fb16 c02f 306b 2131 901b 832e
00000030: 59c4 8f30 dd3e 3c2d 0000 0000 0000 0000
00000040: 0000 0000 900a ab21 5366 012f 851c 4f30
00000050: 2dbe b82d 0000 0000 02d2 852f 33d1 1623

exp_avg f4 [24, 24]
6e-45 6e-45 6e-45 -6e-45 0.0 0.0 0.0 0.0
0.0 6e-45 6e-45 6e-45 6e-45 0.0 0.0 0.0
0.0 0.0 6e-45 6e-45 6e-45 0.0 6e-45 0.0
6e-45 -6e-45 6e-45 6e-45 0.0 0.0 6e-45 0.0
0.0 -6e-45 6e-45 -6e-45 -6e-45 -6e-45 0.0 0.0
0.0 0.0 6e-45 -6e-45 6e-45 0.0 6e-45 0.0
6e-45 6e-45 6e-45 6e-45 0.0 0.0 -6e-45 0.0
0.0 6e-45 6e-45 6e-45 6e-45 6e-45 0.0 0.0
0.0 0.0 6e-45 6e-45 6e-45 0.0 -6e-45 0.0
6e-45 6e-45 6e-45 6e-45 0.0 0.0 0.0 0.0
0.0 6e-45 6e-45 6e-45 -6e-45 0.0 0.0 0.0
0.0 0.0 6e-45 6e-45 6e-45 0.0 6e-45 0.0
6e-45 6e-45 6e-45 6e-45 0.0 0.0 -6e-45 -6e-45
0.0 6e-45 6e-45 -6e-45 6e-45 -6e-45 0.0 0.0
0.0 -6e-45 6e-45 -6e-45 -6e-45 0.0 6e-45 -6e-45
6e-45 6e-45 6e-45 6e-45 0.0 0.0 -6e-45 0.0
0.0 6e-45 6e-45 6e-45 6e-45 -6e-45 0.0 0.0
0.0 0.0 6e-45 6e-45 0.0 0.0 6e-45 -6e-45
6e-45 6e-45 6e-45 6e-45 0.0 0.0 6e-45 0.0
0.0 6e-45 6e-45 6e-45 6e-45 6e-45 0.0 0.0
0.0 0.0 6e-45 6e-45 6e-45 0.0 6e-45 0.0
6e-45 -6e-45 6e-45 6e-45 0.0 0.0 -6e-45 0.0
0.0 6e-45 6e-45 6e-45 6e-45 6e-45 0.0 0.0
0.0 -6e-45 6e-45 6e-45 6e-45 0.0 6e-45 6e-45
6e-45 6e-45 6e-45 6e-45 0.0 0.0 0.0 0.0
0.0 6e-45 0.0 6e-45 0.0 0.0 0.0 0.0
0.0 0.0 0.0 6e-45 6e-45 0.0 0.0 0.0
6e-45 6e-45 6e-45 6e-45 0.0 0.0 -6e-45 -6e-45
0.0 6e-45 6e-45 6e-45 6e-45 6e-45 0.0 0.0
0.0 6e-45 6e-45 -6e-45 6e-45 0.0 6e-45 -6e-45
6e-45 6e-45 6e-45 6e-45 0.0 0.0 -6e-45 0.0
0.0 6e-45 6e-45 6e-45 6e-45 6e-45 0.0 0.0
00000000: 0400 0000 0400 0000 0400 0000 0400 0080
00000010: 0000 0000 0000 0000 0000 0000 0000 0000
00000020: 0000 0000 0400 0000 0400 0000 0400 0000
00000030: 0400 0000 0000 0000 0000 0000 0000 0000
00000040: 0000 0000 0000 0000 0400 0000 0400 0000
00000050: 0400 0000 0000 0000 0400 0000 0000 0000
00000060: 0400 0000 0400 0080 0400 0000 0400 0000
00000070: 0000 0000 0000 0000 0400 0000 0000 0000
00000080: 0000 0000 0400 0080 0400 0000 0400 0080
00000090: 0400 0080 0400 0080 0000 0000 0000 0000
000000a0: 0000 0000 0000 0000 0400 0000 0400 0080
000000b0: 0400 0000 0000 0000 0400 0000 0000 0000
000000c0: 0400 0000 0400 0000 0400 0000 0400 0000
000000d0: 0000 0000 0000 0000 0400 0080 0000 0000
000000e0: 0000 0000 0400 0000 0400 0000 0400 0000
000000f0: 0400 0000 0400 0000 0000 0000 0000 0000
00000100: 0000 0000 0000 0000 0400 0000 0400 0000
00000110: 0400 0000 0000 0000 0400 0080 0000 0000
00000120: 0400 0000 0400 0000 0400 0000 0400 0000
00000130: 0000 0000 0000 0000 0000 0000 0000 0000
00000140: 0000 0000 0400 0000 0400 0000 0400 0000
00000150: 0400 0080 0000 0000 0000 0000 0000 0000
00000160: 0000 0000 0000 0000 0400 0000 0400 0000
00000170: 0400 0000 0000 0000 0400 0000 0000 0000
00000180: 0400 0000 0400 0000 0400 0000 0400 0000
00000190: 0000 0000 0000 0000 0400 0080 0400 0080
000001a0: 0000 0000 0400 0000 0400 0000 0400 0080
000001b0: 0400 0000 0400 0080 0000 0000 0000 0000
000001c0: 0000 0000 0400 0080 0400 0000 0400 0080
000001d0: 0400 0080 0000 0000 0400 0000 0400 0080
000001e0: 0400 0000 0400 0000 0400 0000 0400 0000
000001f0: 0000 0000 0000 0000 0400 0080 0000 0000
00000200: 0000 0000 0400 0000 0400 0000 0400 0000
00000210: 0400 0000 0400 0080 0000 0000 0000 0000
00000220: 0000 0000 0000 0000 0400 0000 0400 0000
00000230: 0000 0000 0000 0000 0400 0000 0400 0080
00000240: 0400 0000 0400 0000 0400 0000 0400 0000
00000250: 0000 0000 0000 0000 0400 0000 0000 0000
00000260: 0000 0000 0400 0000 0400 0000 0400 0000
00000270: 0400 0000 0400 0000 0000 0000 0000 0000
00000280: 0000 0000 0000 0000 0400 0000 0400 0000
00000290: 0400 0000 0000 0000 0400 0000 0000 0000
000002a0: 0400 0000 0400 0080 0400 0000 0400 0000
000002b0: 0000 0000 0000 0000 0400 0080 0000 0000
000002c0: 0000 0000 0400 0000 0400 0000 0400 0000
000002d0: 0400 0000 0400 0000 0000 0000 0000 0000
000002e0: 0000 0000 0400 0080 0400 0000 0400 0000
000002f0: 0400 0000 0000 0000 0400 0000 0400 0000
00000300: 0400 0000 0400 0000 0400 0000 0400 0000
00000310: 0000 0000 0000 0000 0000 0000 0000 0000
00000320: 0000 0000 0400 0000 0000 0000 0400 0000
00000330: 0000 0000 0000 0000 0000 0000 0000 0000
00000340: 0000 0000 0000 0000 0000 0000 0400 0000
00000350: 0400 0000 0000 0000 0000 0000 0000 0000
00000360: 0400 0000 0400 0000 0400 0000 0400 0000
00000370: 0000 0000 0000 0000 0400 0080 0400 0080
00000380: 0000 0000 0400 0000 0400 0000 0400 0000
00000390: 0400 0000 0400 0000 0000 0000 0000 0000
000003a0: 0000 0000 0400 0000 0400 0000 0400 0080
000003b0: 0400 0000 0000 0000 0400 0000 0400 0080
000003c0: 0400 0000 0400 0000 0400 0000 0400 0000
000003d0: 0000 0000 0000 0000 0400 0080 0000 0000
000003e0: 0000 0000 0400 0000 0400 0000 0400 0000
000003f0: 0400 0000 0400 0000 0000 0000 0000 0000

exp_avg_sq f4 [24, 24]
80.37622 0.055455767 7.7688255 9.249611 0.0 0.0 0.0 0.0
0.0 7.587676 0.32986504 0.1550314 0.13917378 0.0 0.0 0.0
0.0 0.0 0.7001711 0.46196318 5.780222 0.0 0.79026926 0.0
66.87869 1.4918889 105.78756 155.37788 0.0 0.0 0.0018457404 0.0
0.0 95.85276 5.798958 0.8053963 23.50938 12.64976 0.0 0.0
0.0 0.0 13.699955 0.08821953 1.1565131 0.0 1.7363061 0.0
4.418881e-06 0.221827 2.65513 1.1662567 0.0 0.0 0.020204272 0.0
0.0 1.3455856 0.010206181 0.016596692 0.3288958 0.13477102 0.0 0.0
0.0 0.0 0.009544693 0.0034281025 2.277389e-06 0.0 0.06837093 0.0
36.18152 20.874432 202.72816 261.50348 0.0 0.0 0.0 0.0
0.0 216.41167 3.7041247 284.03885 39.089424 0.0 0.0 0.0
0.0 0.0 4.5495543 6.440109 1.3878142 0.0 82.18268 0.0
1326.9531 4067.5654 340097.06 716865.2 0.0 0.0 0.059553165 0.0015224387
0.0 236965.19 16418.205 18687.25 105066.875 48251.777 0.0 0.0
0.0 1.1087998e-09 47856.746 36.15744 0.54194677 0.0 12353.741 2.0417629e-06
2.0473077e-10 10.413365 66.79886 48.94485 0.0 0.0 7.145515e-05 0.0
0.0 72.50297 2.1817174 39.752407 24.745203 0.002444504 0.0 0.0
0.0 0.0 5.2233806 1.1520257e-07 0.0 0.0 37.838688 2.0500141e-07
278.92374 1620.8202 120673.305 295583.28 0.0 0.0 0.02742751 0.0
0.0 97197.97 5481.13 3577.794 38417.26 15274.116 0.0 0.0
0.0 0.0 17277.684 1.5706016 0.51019037 0.0 3552.6846 0.0
13193.476 2336.5352 91960.15 196982.2 0.0 0.0 0.02240484 0.0
0.0 55211.066 6697.395 12461.301 28562.162 21168.508 0.0 0.0
0.0 3.9016215e-10 14045.246 347.1621 4200.8496 0.0 7262.5923 6.490034e-07
0.0016702791 3.319782e-06 9.20459e-05 9.557263e-08 0.0 0.0 0.0 0.0
0.0 1.3242853e-05 0.0 1.313683e-05 0.0 0.0 0.0 0.0
0.0 0.0 0.0 0.0011412231 0.00087359874 0.0 0.0 0.0
326357.16 78232.42 690896.06 1.6169472e+06 0.0 0.0 0.04143111 0.0003074979
0.0 914013.8 96498.92 948088.25 144012.44 24461.377 0.0 0.0
0.0 1.5605098e-10 285991.34 52397.68 2.1721478 0.0 519847.5 2.3629316e-06
0.030751402 8.225543 55.964546 29.816853 0.0 0.0 0.0018958661 0.0
0.0 52.47875 2.4076962 19.531322 19.45739 0.012279325 0.0 0.0
00000000: a0c0 a042 9625 633d 389a f840 68fe 1341
00000010: 0000 0000 0000 0000 0000 0000 0000 0000
00000020: 0000 0000 3ece f240 12e4 a83e 8dc0 1e3e
00000030: 9283 0e3e 0000 0000 0000 0000 0000 0000
00000040: 0000 0000 0000 0000 6a3e 333f 7086 ec3e
00000050: 94f7 b840 0000 0000 164f 4a3f 0000 0000
00000060: e4c1 8542 37f6 be3f 3b93 d342 bd60 1b43
00000070: 0000 0000 0000 0000 c5ec f13a 0000 0000
00000080: 0000 0000 9db4 bf42 1091 b940 742e 4e3f
00000090: 3613 bc41 6b65 4a41 0000 0000 0000 0000
000000a0: 0000 0000 0000 0000 0433 5b41 71ac b43d
000000b0: 9f08 943f 0000 0000 473f de3f 0000 0000
000000c0: e645 9436 9e26 633e a6ed 2940 e647 953f
000000d0: 0000 0000 0000 0000 6e83 a53c 0000 0000
000000e0: 0000 0000 263c ac3f d337 273c c9f5 873c
000000f0: 0865 a83e 6a01 0a3e 0000 0000 0000 0000
00000100: 0000 0000 0000 0000 5861 1c3c 04aa 603b
00000110: 3fd5 1836 0000 0000 0f06 8c3d 0000 0000
00000120: e0b9 1042 d6fe a641 69ba 4a43 72c0 8243
00000130: 0000 0000 0000 0000 0000 0000 0000 0000
00000140: 0000 0000 6369 5843 6110 6d40 f904 8e43
00000150: 925b 1c42 0000 0000 0000 0000 0000 0000
00000160: 0000 0000 0000 0000 f395 9140 5f15 ce40
00000170: e5a3 b13f 0000 0000 885d a442 0000 0000
00000180: 80de a544 0c39 7e45 2210 a648 1304 2f49
00000190: 0000 0000 0000 0000 05ee 733d 918c c73a
000001a0: 0000 0000 4c69 6748 6944 8046 80fe 9146
000001b0: 7035 cd47 c77b 3c47 0000 0000 0000 0000
000001c0: 0000 0000 6d64 9830 bff0 3a47 38a1 1042
000001d0: 06bd 0a3f 0000 0000 f706 4146 3805 0936
000001e0: 971a 612f 259d 2641 0499 8542 87c7 4342
000001f0: 0000 0000 0000 0000 31da 9538 0000 0000
00000200: 0000 0000 8501 9142 42a1 0b40 7702 1f42
00000210: 2df6 c541 f933 203b 0000 0000 0000 0000
00000220: 0000 0000 0000 0000 ef25 a740 4865 f733
00000230: 0000 0000 0000 0000 d15a 1742 5c1e 5c34
00000240: 3d76 8b43 3f9a ca44 a7b0 eb47 e953 9048
00000250: 0000 0000 0000 0000 a8af e03c 0000 0000
00000260: 0000 0000 fcd6 bd47 0a49 ab45 b49c 5f45
00000270: 4311 1647 77a8 6e46 0000 0000 0000 0000
00000280: 0000 0000 0000 0000 5efb 8646 7909 c93f
00000290: d69b 023f 0000 0000 f40a 5e45 0000 0000
000002a0: e725 4e46 9008 1245 139c b347 8d5d 4048
000002b0: 0000 0000 0000 0000 5b8a b73c 0000 0000
000002c0: 0000 0000 11ab 5747 294b d145 34b5 4246
000002d0: 5324 df46 0461 a546 0000 0000 0000 0000
000002e0: 0000 0000 717e d62f fc74 5b46 c094 ad43
000002f0: cc46 8345 0000 0000 bdf4 e245 2d37 2e35
00000300: 44ed da3a 6cc9 5e36 c408 c138 9c3d cd33
00000310: 0000 0000 0000 0000 0000 0000 0000 0000
00000320: 0000 0000 9f2d 5e37 0000 0000 4166 5c37
00000330: 0000 0000 0000 0000 0000 0000 0000 0000
00000340: 0000 0000 0000 0000 0000 0000 1895 953a
00000350: 3802 653a 0000 0000 0000 0000 0000 0000
00000360: a55a 9f48 36cc 9847 01ad 2849 9a61 c549
00000370: 0000 0000 0000 0000 abb3 293d ab37 a139
00000380: 0000 0000 dd25 5f49 7679 bc47 8477 6749
00000390: 1ca3 0c48 c11a bf46 0000 0000 0000 0000
000003a0: 0000 0000 7294 2b2f eba4 8b48 aead 4c47
000003b0: 7804 0b40 0000 0000 f0d4 fd48 db92 1e36
000003c0: 5dea fb3c d39b 0341 b2db 5f42 ea88 ee41
000003d0: 0000 0000 0000 0000 b67e f83a 0000 0000
000003e0: 0000 0000 3dea 5142 b217 1a40 2640 9c41
000003f0: bca8 9b41 392f 493c 0000 0000 0000 0000

exp_avg f4 [24]
6e-45 6e-45 6e-45 6e-45 6e-45 6e-45 6e-45 6e-45
6e-45 6e-45 6e-45 6e-45 6e-45 6e-45 -6e-45 6e-45
-6e-45 -6e-45 6e-45 6e-45 6e-45 6e-45 6e-45 6e-45
00000000: 0400 0000 0400 0000 0400 0000 0400 0000
00000010: 0400 0000 0400 0000 0400 0000 0400 0000
00000020: 0400 0000 0400 0000 0400 0000 0400 0000
00000030: 0400 0000 0400 0000 0400 0080 0400 0000
00000040: 0400 0080 0400 0080 0400 0000 0400 0000
00000050: 0400 0000 0400 0000 0400 0000 0400 0000

exp_avg_sq f4 [24]
1.5211367e-10 1.1053874e-10 3.282214e-13 5.4054324e-11 2.179368e-08 1.270543e-13 3.1587613e-09 7.485012e-09
2.1610562e-14 2.4372104e-08 2.528657e-13 4.5418833e-10 5.137378e-09 7.137223e-10 4.9622955e-09 5.976606e-10
3.9236024e-08 1.6459535e-13 5.951322e-10 3.0718919e-09 1.5263676e-10 1.3625558e-10 1.4899034e-13 5.613979e-11
00000000: 3140 272f c713 f32e b0c5 b82a c2bb 6d2e
00000010: cf34 bb32 e90c 0f2a 8411 5931 6e97 0032
00000020: 90a6 c228 d35a d132 ca59 8e2a 53b1 f92f
00000030: db84 b031 be2f 4430 d080 aa31 a048 2430
00000040: 7784 2833 6151 392a b596 2330 4b19 5331
00000050: 6ed3 272f 89d0 152f 8bbf 272a c9e7 762e

exp_avg f4 [5, 24]
6e-45 6e-45 -6e-45 6e-45 -6e-45 6e-45 -6e-45 6e-45
6e-45 -6e-45 6e-45 6e-45 -6e-45 -6e-45 -6e-45 6e-45
6e-45 -6e-45 -6e-45 -6e-45 6e-45 6e-45 6e-45 -6e-45
-6e-45 6e-45 6e-45 -6e-45 6e-45 -6e-45 6e-45 -6e-45
-6e-45 6e-45 6e-45 6e-45 6e-45 6e-45 6e-45 -6e-45
-6e-45 6e-45 -6e-45 -6e-45 -6e-45 6e-45 6e-45 -6e-45
6e-45 -6e-45 -6e-45 6e-45 -6e-45 -6e-45 6e-45 -6e-45
6e-45 -6e-45 -6e-45 6e-45 -6e-45 6e-45 6e-45 -6e-45
6e-45 6e-45 6e-45 -6e-45 -6e-45 -6e-45 -6e-45 -6e-45
6e-45 -6e-45 -6e-45 6e-45 6e-45 6e-45 6e-45 6e-45
6e-45 6e-45 -6e-45 -6e-45 6e-45 -6e-45 6e-45 -6e-45
6e-45 6e-45 6e-45 -6e-45 6e-45 -6e-45 6e-45 -6e-45
6e-45 6e-45 6e-45 6e-45 6e-45 -6e-45 6e-45 6e-45
0.0 -6e-45 -6e-45 -6e-45 6e-45 6e-45 6e-45 -6e-45
6e-45 6e-45 6e-45 6e-45 -6e-45 -6e-45 -6e-45 6e-45
00000000: 0400 0000 0400 0000 0400 0080 0400 0000
00000010: 0400 0080 0400 0000 0400 0080 0400 0000
00000020: 0400 0000 0400 0080 0400 0000 0400 0000
00000030: 0400 0080 0400 0080 0400 0080 0400 0000
00000040: 0400 0000 0400 0080 0400 0080 0400 0080
00000050: 0400 0000 0400 0000 0400 0000 0400 0080
00000060: 0400 0080 0400 0000 0400 0000 0400 0080
00000070: 0400 0000 0400 0080 0400 0000 0400 0080
00000080: 0400 0080 0400 0000 0400 0000 0400 0000
00000090: 0400 0000 0400 0000 0400 0000 0400 0080
000000a0: 0400 0080 0400 0000 0400 0080 0400 0080
000000b0: 0400 0080 0400 0000 0400 0000 0400 0080
000000c0: 0400 0000 0400 0080 0400 0080 0400 0000
000000d0: 0400 0080 0400 0080 0400 0000 0400 0080
000000e0: 0400 0000 0400 0080 0400 0080 0400 0000
000000f0: 0400 0080 0400 0000 0400 0000 0400 0080
00000100: 0400 0000 0400 0000 0400 0000 0400 0080
00000110: 0400 0080 0400 0080 0400 0080 0400 0080
00000120: 0400 0000 0400 0080 0400 0080 0400 0000
00000130: 0400 0000 0400 0000 0400 0000 0400 0000
00000140: 0400 0000 0400 0000 0400 0080 0400 0080
00000150: 0400 0000 0400 0080 0400 0000 0400 0080
00000160: 0400 0000 0400 0000 0400 0000 0400 0080
00000170: 0400 0000 0400 0080 0400 0000 0400 0080
00000180: 0400 0000 0400 0000 0400 0000 0400 0000
00000190: 0400 0000 0400 0080 0400 0000 0400 0000
000001a0: 0000 0000 0400 0080 0400 0080 0400 0080
000001b0: 0400 0000 0400 0000 0400 0000 0400 0080
000001c0: 0400 0000 0400 0000 0400 0000 0400 0000
000001d0: 0400 0080 0400 0080 0400 0080 0400 0000

exp_avg_sq f4 [5, 24]
17.904934 1.6378075 0.0037993877 77.911446 100903.5 0.76152927 22647.777 16731.697
5.7399518e-08 921515.5 4.526905 5974.2075 161455.6 2374.9465 302453.06 9610.127
1.3595559e+06 0.14989655 25668.506 769.8054 89665.5 34700.953 0.0009581001 2.1487737
9.70341 0.5802397 0.007953451 7.1104617 62863.746 0.8781566 20372.207 11603.714
3.6702157e-05 1.8552739e+06 2.9521074 3838.0754 227597.06 38494.098 57953.75 19737.605
2.89089e+06 0.0044107237 2575.3025 673.7313 38305.555 16415.266 3.1907748e-05 2.1534958
58.94342 2.1385865 0.00546988 18.564566 268.49164 0.00021650402 58.337166 791.8454
3.9873306e-11 96.9998 0.013224192 0.04868855 127.79326 4.002176 528.48737 360.25946
1051.5941 0.025463026 247.7459 952.7401 0.6487776 0.9307464 0.0003743125 0.0324036
3.125117 0.33363056 0.07872805 554.755 68900.484 19.008066 1520.8464 57539.723
8.467007e-06 1.5131652e+06 38.633488 33897.61 203798.17 2097.0098 108128.99 26075.941
1.090943e+06 0.01825419 26521.312 240.46957 69502.125 29588.955 9.29633e-05 17.437777
20.133047 3.377988 0.24133946 9.027127 126143.7 2.4590435 51437.176 13458.201
0.0 175451.16 0.2375455 407.99792 34819.11 61.051777 163500.67 376.38324
754321.8 0.0243453 10249.936 832.3698 87474.88 26085.062 0.0006601747 0.3974569
00000000: 4e3d 8f41 ada3 d13f 26ff 783b a9d2 9b42
00000010: c013 c547 95f3 423f 8eef b046 65b7 8246
00000020: 7087 7633 b8fa 6049 68dc 9040 a9b1 ba45
00000030: e6ab 1d48 256f 1445 a2ae 9348 8228 1646
00000040: 1ff6 a549 7b7e 193e 0389 c846 8c73 4044
00000050: c020 af47 f48c 0747 0229 7b3a 8285 0940
00000060: 2b41 1b41 978a 143f 314f 023c e788 e340
00000070: bf8f 7547 dfce 603f 6a28 9f46 db4e 3546
00000080: a4f0 1938 4f79 e249 54ef 3c40 35e1 6f45
00000090: 4443 5e48 195e 1647 c061 6247 3633 9a46
000000a0: 2872 304a d587 903b d7f4 2045 ce6e 2844
000000b0: 8ea1 1547 883e 8046 afd4 0538 e0d2 0940
000000c0: 10c6 6b42 9ade 0840 ae3c b33b 3b84 9441
000000d0: ee3e 8643 5b05 6339 4259 6942 1bf6 4544
000000e0: 5a5d 2f2e e6ff c142 48aa 583c a56d 473d
000000f0: 2696 ff42 d311 8040 311f 0444 3621 b443
00000100: 0373 8344 d697 d03c f3be 7743 5e2f 6e44
00000110: 4a16 263f 6545 6e3f 603f c439 a3b9 043d
00000120: eb01 4840 a0d1 aa3e 2c3c a13d 52b0 0a44
00000130: 3e92 8647 8510 9841 161b be44 b9c3 6047
00000140: 850d 0e37 6ab6 b849 b188 1a42 9c69 0447
00000150: 8b05 4748 2810 0345 7f30 d347 e2b7 cb46
00000160: f82b 8549 d089 953c a032 cf46 3678 7043
00000170: 10bf 8747 e929 e746 4bf5 c238 9180 8b41
00000180: 7b10 a141 f530 5840 b121 773e 1d6f 1041
00000190: da5f f647 f860 1d40 2ded 4847 ce48 5246
000001a0: 0000 0000 ca56 2b48 213f 733e bcff cb43
000001b0: 1c03 0847 0535 7442 2bab 1f48 0e31 bc43
000001c0: 1d29 3849 cb6f c73c be27 2046 ab17 5044
000001d0: 71d9 aa47 20ca cb46 930f 2d3a 797f cb3e

exp_avg f4 [5]
-0.03311079 -0.011593001 -0.06513139 -0.08993694 -4.1355815
00000000: 2e9f 07bd 92f0 3dbc 9b63 85bd dc30 b8bd
00000010: af56 84c0

exp_avg_sq f4 [5]
0.06352261 7.6026945 0.04546925 0.05514648 22.788872
00000000: 2418 823d 4649 f340 f73d 3a3d 47e1 613d
00000010: 9c4f b641
