data/data3/house_net.pt (torch, 6300 bytes, 6 tensors)

fc1.weight f4 [24, 9]
000000 5a 0f e4 3d fc 4a ea 3c 0c 64 c8 bd a1 f9 a0 3c
       0.111357406 0.028600208 -0.097847074 0.019650282
000010 eb 34 47 3e cd 95 bd 3e 4f b4 20 3e e0 4b 33 3e
       0.1945378 0.3702835 0.15693782 0.17509413
000020 0b de ae 3d 3b d2 9c 3c b7 6d 76 bd d2 46 20 be
       0.08538445 0.019143214 -0.060163226 -0.15652016
000030 bb b7 4d 3e 67 31 46 be 86 bd 49 3d 4f 55 b6 be
       0.20089619 -0.19354783 0.04925301 -0.3561196
000040 82 d4 13 3d 8c 46 d9 3b 67 5d 63 3d c4 2e 11 3d
       0.036091335 0.0066307243 0.055508997 0.03544499
000050 23 a0 76 be 9e 2c 69 bd fa 86 5f be de 0f df be
       -0.24084525 -0.056927316 -0.21828833 -0.43566793
000060 33 67 b4 bc 9b 24 c1 be 0d 7b 23 be 52 9e d1 3d
       -0.022021865 -0.3772324 -0.15964909 0.10235275
000070 a1 db 06 3e ad 7f 15 3e 40 ec e9 ba dc f1 2f bf
       0.1316972 0.14599486 -0.0017846897 -0.68728423
000080 15 a3 c4 bd d3 9f d4 bd 00 98 9d be 6b 48 cd be
       -0.09601418 -0.103820466 -0.3078003 -0.40094313
000090 7b e2 98 be eb 64 68 3d 4e 6c 90 be 06 85 67 be
       -0.2986029 0.056736868 -0.2820763 -0.22609338
0000a0 66 a0 98 3e a3 9d 01 3e c0 e0 aa bc 5b 46 68 be
       0.29809874 0.1265779 -0.020859122 -0.22683088
0000b0 b3 7f 75 be 36 79 9a be eb 86 8d 3c 38 19 22 be
       -0.23974495 -0.30170602 0.017276248 -0.15829933
0000c0 8b 74 3c be 08 dc 27 be 4e 73 32 be 56 6e 60 bc
       -0.18403833 -0.16392529 -0.17426798 -0.013698181
0000d0 16 f1 db bc 08 eb 74 be 23 8c 86 be 8b c4 ea 3d
       -0.026848357 -0.23917782 -0.2627879 0.11463269
0000e0 ae 21 ce bd 8b 6a 0b bd 91 34 2d 3d b8 ee 2f be
       -0.10065018 -0.034037154 0.04228646 -0.17180908
0000f0 95 c3 d3 3d ed 35 58 be d2 7a cf bc 82 70 9d be
       0.10340039 -0.21114321 -0.02532712 -0.307499
000100 64 dc e7 3d 71 08 09 be fa dc 97 be c9 04 70 be
       0.11321333 -0.13382126 -0.2966078 -0.23439325
000110 88 d2 63 be 82 d0 a6 be 1c 58 0f be 51 d2 8e be
       -0.2224828 -0.32580954 -0.13998455 -0.27894834
000120 3e 54 32 be 76 e3 a8 be ab d8 9a 3e d0 12 26 3e
       -0.17414948 -0.3298604 0.3024343 0.16218114
000130 88 af 63 be 16 5c f2 3c 3e 89 47 be 80 fd e2 bd
       -0.22234929 0.029584926 -0.19485947 -0.110835075
000140 40 4e 7d be 25 07 1c 3d 4a 94 37 3b 8f cf 89 bd
       -0.24736881 0.03809275 0.002801197 -0.06729042
000150 e4 5c 3b bd df f4 99 be cd 71 a1 be f8 f7 a0 be
       -0.045742884 -0.30069634 -0.31532136 -0.31439185
000160 66 90 c2 be fd 56 3e be 48 2c 0f 3d 00 65 38 3c
       -0.38000792 -0.18587871 0.03495434 0.011254549
000170 2c cb a6 bd 6f 31 10 3d 8a 25 4b be 0b c5 0e be
       -0.08144221 0.035203394 -0.19838539 -0.13942353
000180 c8 05 44 be 24 b5 54 bd 16 36 d6 bd 0a 6a b4 3d
       -0.1914283 -0.05193056 -0.10459535 0.08809288
000190 00 11 46 be b6 ba ba 3d 36 f0 62 be 35 af ff 3d
       -0.19342422 0.091176435 -0.22161946 0.1248459
0001a0 53 3b 0e bb 05 36 45 bf 7c 8d aa be 5b aa 72 be
       -0.002170284 -0.7703555 -0.3331107 -0.23697798
0001b0 6c 3f 27 39 5c 69 36 3c 0f 33 b9 bd 65 e2 fd 3d
       0.00015949988 0.011133518 -0.09042942 0.12396697
0001c0 b7 e9 67 be c0 c2 92 be 4c d1 f8 3d d7 33 81 bd
       -0.22647749 -0.28664207 0.12149295 -0.06308716
0001d0 79 fc 9e bd 54 7b 41 be 75 32 13 3e dc c9 b3 be
       -0.07762999 -0.18894702 0.14374717 -0.35114944
0001e0 31 1f b0 be f6 ea 27 bd 19 ba 71 3d c2 0e 2e 3e
       -0.34398797 -0.04099556 0.059015367 0.16997817
0001f0 c4 76 7c be 27 2f 89 be 46 84 ba bd ae ee 91 be
       -0.2465468 -0.26793787 -0.091072604 -0.2850241
000200 cb ee d9 3d 76 e5 32 3e 80 77 33 bc 96 9e 73 3d
       0.10641249 0.17470345 -0.010953784 0.05947741
000210 ab d3 b5 bc 6e 3f 91 3e cb c7 11 be 4b ae b2 bd
       -0.022195658 0.28368706 -0.14236371 -0.0872465
000220 96 f3 05 bd 2b 4a 52 be f6 fa 48 bd a0 07 14 3e
       -0.032703005 -0.20536105 -0.04906746 0.14456034
000230 56 16 2f bd 18 7b 0a 3e 5b 02 8b be 9f d1 a8 be
       -0.04274591 0.13523519 -0.27150235 -0.32972428
000240 44 a9 9b be b0 7c b6 3d e0 40 a8 be 0b a1 53 3d
       -0.30402577 0.08910501 -0.32861996 0.051667254
000250 c8 06 66 be eb 46 9b bd 2b 7a b9 bd cb 33 45 be
       -0.22463524 -0.07581886 -0.09056505 -0.19258039
000260 80 c4 47 bc b6 3e 74 be 74 b2 b3 3d fb a9 a9 be
       -0.012192845 -0.23852047 0.087742716 -0.33137497
000270 06 78 8f bd 93 a8 03 be c6 ed 52 3e a1 b7 33 3e
       -0.070053145 -0.12857275 0.20598516 0.17550518
000280 13 b9 9a bd 12 37 62 be 89 c9 93 3d 43 47 3e 3d
       -0.07554831 -0.2209132 0.07216174 0.04645468
000290 b4 b8 02 be 60 c3 f8 bc 87 60 8c be 06 b1 75 3e
       -0.12765771 -0.0303666 -0.27417395 0.2399331
0002a0 b7 bf c4 b6 6d e5 88 be 45 ba 33 be 8a 36 6f 3c
       -5.8635737e-06 -0.26737538 -0.17551525 0.0146004055
0002b0 e3 af 3f be 53 e9 ac be 48 32 62 3e 45 e3 b4 3d
       -0.18719439 -0.33771762 0.22089493 0.08832411
0002c0 86 bb 27 be ab aa 19 3e 15 7e 4d 3d 71 3d 7b 3e
       -0.16380128 0.15006511 0.05016907 0.24535157
0002d0 f2 73 e7 bc af 3c b8 3c cf 00 62 3e ff 29 26 3e
       -0.02825353 0.022489874 0.22070621 0.16226958
0002e0 b2 94 9c 3e 1a b1 0b bd 72 b8 c8 3d 8e e1 db ba
       0.30582196 -0.034104444 0.09800805 -0.0016775595
0002f0 58 3e 81 3e ab 8e a8 bc 5b fc 8b be 28 9b 6d 3e
       0.25242877 -0.020575842 -0.2734097 0.23203719
000300 c8 de 8c be fb fc 1f 3e 08 76 6b be 98 da 50 be
       -0.2751372 0.15623848 -0.22994244 -0.20395887
000310 b8 61 25 3e 80 d7 04 bc 03 9e 73 3d 2d 12 b4 bd
       0.16150558 -0.00810802 0.059476864 -0.08792529
000320 48 99 43 be 41 35 23 3d 94 b1 e1 bd c8 34 37 3e
       -0.19101441 0.03984571 -0.110201985 0.17891228
000330 8a d0 2b bf 79 5d 84 be 4b eb e2 bd fb ec d5 bb
       -0.6711508 -0.25852564 -0.11080035 -0.0065284944
000340 d8 cb 11 bd d7 d9 a1 3e 9e 58 8a be 43 23 40 3e
       -0.03559479 0.3161151 -0.27020735 0.18763451
000350 ae 62 49 3e a5 30 65 be 5a 86 99 3c 6c 5a d8 bd
       0.1966655 -0.22381838 0.018740822 -0.105641216

fc1.bias f4 [24]
000000 0c 9f e5 bc 90 da 36 3e 0d 1f fb be 90 a9 d0 be
       -0.028029941 0.17856812 -0.49047127 -0.40754366
000010 46 e4 66 be b6 88 04 3e 51 f9 41 be ae 52 a2 be
       -0.22548017 0.12942776 -0.18942763 -0.31703705
000020 12 88 8e 3e 37 73 0f bf 3c 1f 33 be 25 7e 2c bf
       0.27838188 -0.5603518 -0.17492384 -0.6737998
000030 d5 07 d5 3d e8 1e b3 3d b2 b7 93 be 56 ca 6c 3c
       0.104018845 0.08746129 -0.28851086 0.0144525375
000040 c0 1c 3a 3e bb 6d 53 3e 01 82 73 be 46 7f 1d be
       0.1817503 0.20647328 -0.23780061 -0.15380582
000050 8a 80 27 bd 90 65 4b 3e f1 ef 9f be 14 06 8a 3e
       -0.04089407 0.19862962 -0.31237748 0.26957762

fc2.weight f4 [24, 24]
000000 c8 25 0a 3d bd 2a 66 be 26 d4 b6 bd 6f ac 42 bd
       0.033727437 -0.22477241 -0.08927183 -0.047527727
000010 64 e8 24 3e 95 a5 14 3e ae 46 12 3e 41 4b 6a bd
       0.16104275 0.1451629 0.14284775 -0.057200674
000020 69 06 8c 3d 92 c8 a7 bc 38 68 86 3b 61 37 5e be
       0.0683716 -0.020481382 0.0041017793 -0.21700813
000030 d2 11 89 be 30 91 da bd 4e e5 c1 bd 03 57 e3 3d
       -0.26771408 -0.106722236 -0.094675645 0.111005805
000040 20 e5 31 3e 78 0a 26 3e 7f 9f e3 bb 7f 1b ee bd
       0.1737256 0.16214931 -0.0069465037 -0.11626338
000050 ee 71 31 be 79 71 23 3e 45 36 07 3d f0 7f 75 bd
       -0.17328617 0.15961255 0.03301074 -0.059936464
000060 e3 c9 23 3d 98 23 b0 bd 97 b3 6f bd 62 ec 3c bd
       0.039987456 -0.08600539 -0.05852088 -0.04612387
000070 c7 f0 0d 3d 5d 48 3d 3e 8b bb a4 bb da 5a b0 bc
       0.03465345 0.18484636 -0.0050272397 -0.021527696
000080 e0 74 e8 3d e2 7a 85 bc 71 3f 6a be 13 3b 41 be
       0.11350417 -0.016293947 -0.22875763 -0.18870191
000090 1d 8b b5 3c 7a d6 41 be 01 30 06 3e 54 fa cb bd
       0.022161061 -0.18929473 0.1310425 -0.09959856
0000a0 fe 3e f4 3d 8c 8c 48 3e 3e 45 d4 3d f2 12 9c bd
       0.11926077 0.19584864 0.103647694 -0.07620801
0000b0 fc 27 80 be e6 f4 89 bc af 3b e5 bd e5 80 ec bd
       -0.25030506 -0.01684041 -0.11193024 -0.11548022
0000c0 61 84 1c be 7a 0a 11 3d e0 6a 0c 3d 10 36 23 be
       -0.15284874 0.03541038 0.03428161 -0.15938592
0000d0 63 b2 42 be 07 5f 01 3e 70 1d a1 3d 4d b8 fa 3d
       -0.19013362 0.12633906 0.07866943 0.12242184
0000e0 16 52 13 be e0 71 2b 3d 56 96 d9 3c 08 04 75 bd
       -0.14386782 0.041856647 0.026560944 -0.059818298
0000f0 3d e2 82 bc d6 2d 6f 3d db c4 a7 bd c7 96 74 bc
       -0.01597702 0.058393322 -0.08191844 -0.014928526
000100 6d 6c 1a be 68 30 1a 3c 11 a5 8c 3a 40 f2 da bc
       -0.15080424 0.009410955 0.0010730346 -0.026726842
000110 5b b4 23 bc 2b 24 d6 3d a7 c3 8a bd 3c 03 cb 3c
       -0.009991731 0.10456117 -0.06775599 0.024781816
000120 29 3b 44 3d 4a 66 04 be 01 a8 a4 bd df a5 b5 bd
       0.047907982 -0.12929645 -0.08039857 -0.08869528
000130 de 04 2b 3e 77 a0 01 3d f7 24 30 3d 44 99 37 3e
       0.16701075 0.03164717 0.043004002 0.1792956
000140 77 29 08 be 42 14 ad bd c1 ea b1 bd c2 b3 ba 3d
       -0.13297068 -0.084511295 -0.08687354 0.09116317
000150 c6 b2 ff bd a4 60 f6 3d 43 a8 34 3e e7 ef 07 be
       -0.1248527 0.120301515 0.17642312 -0.13275109
000160 1d 93 91 bd 25 c7 46 be 55 4d 5f be e7 62 aa 3d
       -0.07108138 -0.19411905 -0.21806844 0.083196454
000170 c4 32 9e be f7 62 0c bd 9a cf 42 3e 80 c9 1a 3c
       -0.30898106 -0.034274068 0.19024506 0.009447455
000180 04 c9 26 be a1 11 4a bd 14 14 fb 3d c4 9b aa bc
       -0.16287619 -0.04933322 0.12259689 -0.020826228
000190 a0 45 e6 3c bd 32 1f bd 96 58 49 3d e9 52 a5 bd
       0.028109372 -0.038866747 0.049156748 -0.080724545
0001a0 de 6c 3b 3e 76 ab a8 3d b9 54 86 3d 49 80 00 be
       0.18303248 0.082358286 0.06559128 -0.12548937
0001b0 8a 34 55 be 3e 91 12 3e a3 ec 00 3e 8c 32 5b 3a
       -0.20820823 0.14313218 0.1259027 0.0008361719
0001c0 eb 07 0b 3e 18 e4 46 3e 25 23 15 bd 12 1b 86 bd
       0.13577239 0.19422948 -0.03641047 -0.06548132
0001d0 34 23 93 3d 0c 8e b6 bd f7 60 44 bd 42 68 d2 3d
       0.07184449 -0.08913812 -0.047944035 0.10273792
0001e0 21 8c 0d be 72 1a e4 3d 1f b5 c2 bd 58 29 eb bd
       -0.13822986 0.111378565 -0.09507202 -0.11482495
0001f0 2e 38 28 3e 0a 22 91 bd c2 c9 f6 bd a5 4c 13 bd
       0.16427681 -0.070865706 -0.12050201 -0.035961766
000200 4b ec 00 3e 97 3e 8b bd 72 47 b2 bc 6f b0 02 3e
       0.12590139 -0.067990474 -0.021762583 0.12762617
000210 66 c9 0b 3e 8f 2d 18 3e b0 50 2d 3e c3 6c 23 3e
       0.13651046 0.14861129 0.16925311 0.15959458
000220 6b 23 11 bd 5d 8d 4d be f6 06 03 bd 12 59 48 bc
       -0.035434168 -0.20073457 -0.03198906 -0.012228267
000230 94 3a 02 bc c6 3d 1b be a8 3a 0e be e6 7c 9b bd
       -0.007948536 -0.15160283 -0.13889563 -0.07592182
000240 7a 4f cb bc 11 67 c0 3d 54 6a 32 be 0d 4c ed 3d
       -0.02481817 0.09394658 -0.17423373 0.11586771
000250 0c f9 5f bd 93 fd 36 bd e1 4e 49 3d 18 a3 15 be
       -0.05468087 -0.04467542 0.04914749 -0.14612997
000260 9a 4c 50 3e 04 6f af 3c e5 e6 87 3c d5 47 33 be
       0.20341721 0.021415241 0.016589591 -0.1750787
000270 6b 62 17 3d 27 e7 26 bc 28 4a 4f 3d cb 92 4d be
       0.036959093 -0.010186947 0.05060783 -0.20075528
000280 c9 71 4e 3b 22 e1 ae bd f7 8c f7 bd f9 37 b6 bd
       0.0031500927 -0.085390344 -0.12087434 -0.08897395
000290 4f 04 94 bc 01 a8 93 3d 8d e5 ee 3c 6f 2f 8e bd
       -0.01806846 0.072097786 0.029162193 -0.06942641
0002a0 4e 2c ce 3c a0 4b cf 3d 67 41 68 3d 7e 1c 7c 3c
       0.02516761 0.10121846 0.056702998 0.015387652
0002b0 fe 1a 13 be 44 8c 4f be c9 b0 22 be 02 22 b8 bd
       -0.14365765 -0.20268351 -0.1588775 -0.089908615
0002c0 9e 0d 03 bd 33 2f 6a be ee 11 63 be c5 d6 04 3e
       -0.03199541 -0.22869568 -0.22174808 0.12972553
0002d0 06 f9 9c 3c 0c 66 c6 3d 54 34 4a 3d 6a 4c cb 3d
       0.019161712 0.09687433 0.04936631 0.09926684
0002e0 78 c9 d2 bd 3d 90 1d bd 4d 76 6c be bc 6e 22 bd
       -0.10292333 -0.038467634 -0.23092003 -0.039656386
0002f0 b6 19 24 bd cf e9 b3 bc eb 4e 90 3c 2e 2a 01 be
       -0.040063582 -0.021962075 0.017615756 -0.12613747
000300 fd 25 c1 bd 52 bc 4c be 51 e6 e5 bd c3 32 54 be
       -0.09431074 -0.19993713 -0.1122557 -0.20722489
000310 0d d1 11 3d b9 e7 70 bd ba 0d ad 3d 22 61 3b be
       0.035599757 -0.058814738 0.08449884 -0.18298772
000320 cf 91 2f 3e 8a b9 49 be ee 18 38 be 57 e0 f4 bd
       0.17145465 -0.19699684 -0.1797826 -0.11956852
000330 80 88 f4 bd 36 74 f6 bd 0f 56 1a be 24 05 3b 3e
       -0.11940098 -0.12033884 -0.15071891 0.1826368
000340 e2 d8 3b 3e 88 5a 63 bc 48 83 a7 3d 35 09 b3 3b
       0.18344453 -0.013876565 0.08179337 0.005463744
000350 9a a5 00 3d 09 8e 25 be 78 34 8a 3d 0d 68 b7 bd
       0.03140793 -0.16167463 0.06748289 -0.08955393
000360 ec 81 1d be d2 40 a1 3d dc ea 37 3e b8 b6 eb bd
       -0.15381593 0.078736916 0.17960685 -0.1150946
000370 14 14 2e 3e db ae ce 3d 30 bb 7d bc a3 4f 95 bc
       0.16999847 0.10091945 -0.0154865235 -0.01822645
000380 00 76 be 3d 5e 6a cf 3d 1d fb d0 3d cd 67 c8 3c
       0.092998505 0.1012771 0.10204146 0.024463559
000390 a8 f4 06 3e 9a 10 05 3e fd f7 0a be ff 88 50 bc
       0.13179266 0.12994614 -0.13571163 -0.012727975
0003a0 51 b9 f8 bd 6a c7 3e 3e f1 34 46 bc 7f 59 15 be
       -0.12144721 0.18630758 -0.012097583 -0.14584921
0003b0 37 06 0a be a0 d6 ad bd 4d be 1a 3d 64 44 36 bd
       -0.13478933 -0.08488202 0.03777914 -0.044498816
0003c0 8d 9f ed bc bf 16 0f 3e fe 70 39 bd e5 28 a5 bd
       -0.029006744 0.1397352 -0.045273773 -0.08064441
0003d0 59 8d 3e 3e 1b 14 a5 bd c7 2d dd 3c 51 26 39 3d
       0.18608607 -0.080604754 0.026999367 0.045202557
0003e0 0d 55 e2 3c fc 86 bd bc 37 49 50 bc 90 01 1d be
       0.027628446 -0.023135655 -0.012712768 -0.15332627
0003f0 d8 8f ee 3d b4 b1 25 be d1 db 29 3e e1 17 1d 3e
       0.1164853 -0.1618107 0.1658776 0.1534114

fc2.bias f4 [24]
000000 1f 1e 6a be be dd b4 3d 30 37 0f 3e 19 16 74 bd
       -0.22863053 0.088313565 0.13985896 -0.059591386
000010 f2 e9 b5 be a4 e8 bd 3d b5 8a bf be fb 61 4b 3e
       -0.3553005 0.09272888 -0.37410513 0.19861595
000020 dc 4c 7e bc e4 70 d0 3d f2 0a 93 bc a8 59 0f be
       -0.015521254 0.10177782 -0.017949555 -0.13999045
000030 d6 36 e4 bd 76 f9 f7 3b f0 81 09 be 3f 27 0b bf
       -0.111432716 0.00756758 -0.13428473 -0.5435676
000040 ec 44 95 bb 5d 16 a3 3d 41 83 a4 be a3 45 80 be
       -0.0045553353 0.0796325 -0.3213139 -0.2505313
000050 8b 69 99 bd fd bc aa be 51 3b 4f 3c 3b 2d bc bd
       -0.07490834 -0.33347312 0.0126484195 -0.091883145

fc3.weight f4 [5, 24]
000000 f9 7a 17 bc 76 29 fe 3c 08 53 20 bd 07 d5 14 3d
       -0.009245628 0.03102563 -0.039141685 0.03633597
000010 3a 23 06 be b4 a0 ad 3c bb 9e 85 bd 3f 91 c2 3c
       -0.13099375 0.021194793 -0.06524416 0.0237509
000020 43 3d c4 3d d7 81 0c bd 7a 53 08 3e e6 f4 54 3d
       0.09581997 -0.034303512 0.13313094 0.051991366
000030 3e 3b 91 3b 01 c5 a3 3d d2 97 18 3e 4f 57 04 bb
       0.004432111 0.0799656 0.14901665 -0.0020193642
000040 43 20 f4 3c 0c 1c 39 3c 39 31 d8 bd 94 2f 31 bc
       0.02980054 0.011298191 -0.105562635 -0.010814566
000050 76 ce a4 3d 2e 60 81 bd f8 b8 d4 3d a8 20 a1 bb
       0.08047192 -0.06317173 0.103868425 -0.004917223
000060 25 a9 16 3d 21 d7 39 3c 46 51 88 3c a9 b6 29 3d
       0.036782403 0.011342795 0.016640317 0.041433964
000070 5a b0 3c 3d b1 5a 34 3d ae 6c 04 3e e4 37 39 3a
       0.04606662 0.044031803 0.12932083 0.00070655183
000080 37 33 ce bd 53 62 49 3d bf de b8 3b 66 38 a9 bd
       -0.10068362 0.049166035 0.005641788 -0.0826271
000090 d9 48 84 3c 66 4f 31 bb d8 9a 24 3e b9 b3 1f 39
       0.016148018 -0.0027055382 0.16074693 0.00015230374
0000a0 27 e6 c7 bd 40 4b c9 bc 63 14 e9 bd 12 64 d9 39
       -0.09760695 -0.024572015 -0.113808416 0.00041464024
0000b0 95 89 0d be d5 02 3b 3d 8a 53 28 bd a9 19 b1 bc
       -0.13822015 0.045656998 -0.041095294 -0.021618681
0000c0 c5 30 38 3c c1 0f 08 bd 2c 97 3a bc 43 38 9d bb
       0.011242096 -0.03321815 -0.011388581 -0.0047979667
0000d0 f3 a4 e0 3d ae 7d 3a bd 4d 4a d9 bd df 55 0c 3d
       0.109689616 -0.045530014 -0.10609875 0.03426158
0000e0 11 ed b3 3d 07 0c 86 bd 00 a2 43 bd 55 12 7f 3d
       0.08785451 -0.06545263 -0.047761917 0.062273342
0000f0 74 ab 24 3e d4 4b 90 3c a2 8c 59 3d f0 31 03 bc
       0.16081029 0.017614283 0.053112634 -0.0080075115
000100 1c 88 bd bd de 50 95 bd fd 69 81 bd ef 57 92 bc
       -0.092544764 -0.07290815 -0.06319044 -0.017864196
000110 40 d3 62 3d c6 cf 82 bc 23 96 eb bc 95 42 a1 3b
       0.055377245 -0.015968215 -0.028758114 0.0049212673
000120 5d 85 56 3d b8 5b 7c bc 61 9f 08 be 07 16 0a 3d
       0.05237328 -0.015402727 -0.13342048 0.033712413
000130 e8 97 0f 3e 6c e0 c8 3d 2d e6 88 3d e6 51 1c 3d
       0.14022791 0.0980843 0.066845275 0.038164042
000140 36 85 cc 3d bb fb 0f 3d 9a 8f 73 bd 09 9f d6 bd
       0.099863455 0.03515218 -0.05946312 -0.10479552
000150 c0 62 b1 3d 48 34 a2 bc 60 89 bf 3c 26 92 52 bb
       0.08661413 -0.01980032 0.023380935 -0.0032130568
000160 ca 03 c2 bd 2c cb 54 bd fd 2b be bd 04 eb 8e bc
       -0.09473379 -0.051951572 -0.09285734 -0.017446049
000170 af 2a 41 3e 8c 3c 24 be 74 e2 11 be 7f 3d 96 bc
       0.18863939 -0.16038722 -0.14246541 -0.01833987
000180 aa 8a 22 3c 9b 5b 45 bd 32 45 84 3d 9f 24 f8 3a
       0.009920755 -0.048183065 0.064585105 0.0018931812
000190 49 95 01 3e 86 ba aa bc ab 59 04 3e e6 79 dc 3d
       0.12654604 -0.020840894 0.1292483 0.10765438
0001a0 36 86 89 3d e1 3b 18 be ab a6 b8 bd e7 96 3d 3d
       0.06715052 -0.14866592 -0.090161644 0.04628649
0001b0 b1 64 1a 3e 9a 0e 0f be c3 61 c4 bd b8 d1 09 bd
       0.15077473 -0.13970414 -0.09588959 -0.03364727
0001c0 77 87 9b 3b 52 47 fa bd c9 39 c9 bd ec 6e 7c bd
       0.0047463733 -0.122206345 -0.09825475 -0.06162922
0001d0 04 ce ce bc b0 a0 15 3e 96 2a 2b 3c 78 fc bb 3d
       -0.02524472 0.14612079 0.010447165 0.09179014

fc3.bias f4 [5]
000000 ee b2 9f 3f 0d cd 96 3f 7a e1 ba 3f 8f d4 bd 3f
       1.247648 1.1781327 1.460006 1.4830493
000010 18 b8 22 40
       2.5424862
