data/data1/checkpoint.pth (torch, 68322 bytes, 18 tensors)

fc1.weight f4 [24, 9]
0	0xbe82a86e	-0.25519127
1	0xbe86c398	-0.263211
2	0x3e774abe	0.24149606
3	0xbe4d2b13	-0.20035963
4	0xbe557c5e	-0.20848224
5	0x3e1a2c90	0.15056062
6	0xbe56253b	-0.2091264
7	0xbd6e26eb	-0.058142584
8	0xbd1dbe96	-0.038511835
9	0x3e0ab0e0	0.13544035
10	0x3dd96838	0.10615581
11	0xbefa7b3d	-0.48922148
12	0x3e351e17	0.1768726
13	0x3dcc14cf	0.099649064
14	0xbed84f2b	-0.422479
15	0x3df82a86	0.12117486
16	0xbdb783f3	-0.08960714
17	0xbe09281a	-0.13394204
18	0xbd5ec60a	-0.054388084
19	0x3d8c38a2	0.06846739
20	0x3e7452d5	0.23859723
21	0xbdc8d344	-0.09805921
22	0xbd93f4ef	-0.07224452
23	0x3e0ffe42	0.14061835
24	0x3e3eb684	0.18624312
25	0xbc8c9538	-0.017160997
26	0x3e1b3643	0.15157418
27	0x3dd9df09	0.10638244
28	0x3d242e00	0.04008293
29	0x3e32b61e	0.17452285
30	0xbe63c090	-0.22241426
31	0x3e1687b1	0.147002
32	0xbe83e9c9	-0.257643
33	0x3d69b6c5	0.05705907
34	0x3ec4c1d8	0.3842914
35	0xbd8fec0a	-0.07027443
36	0x3e24cc93	0.16093664
37	0xbcfaf748	-0.030635491
38	0x3e1a969f	0.1509652
39	0xbd86c1a3	-0.06579902
40	0x3dfaea76	0.12251751
41	0x3e0decf4	0.13859922
42	0xbe85ab80	-0.26107407
43	0xbe667bf3	-0.2250822
44	0x3df981c4	0.12182954
45	0xbdc65036	-0.09683268
46	0xbe16ad8e	-0.14714643
47	0x3e4a3163	0.19745402
48	0xbe8898ae	-0.26678985
49	0x3e8103e6	0.25198287
50	0x3d22c7d6	0.03974136
51	0xbd064700	-0.032782555
52	0xbe67cb13	-0.2263606
53	0xbe4a5173	-0.19757633
54	0xbd578ed0	-0.05262643
55	0x3c7797be	0.015111862
56	0xbdc2dd06	-0.09514813
57	0xbe2ad900	-0.16684341
58	0x3d74b578	0.059743375
59	0x3e9755e8	0.2955773
60	0x3e9dc1db	0.30811962
61	0xbec2ee7a	-0.38072568
62	0x3e1aee24	0.15129906
63	0x3e3e19fc	0.185646
64	0xbc659d45	-0.014014547
65	0x3e51a6f3	0.20473842
66	0x3d97d6ec	0.0741404
67	0xbe11c9dd	-0.14237161
68	0x3bc8927f	0.0061209793
69	0xbdd04431	-0.101692565
70	0xbb6dcf0e	-0.0036286744
71	0x3e64e9c0	0.22354794
72	0x3e1f49cb	0.15555494
73	0xbe3ce783	-0.1844769
74	0xbe8aea71	-0.2713199
75	0xbea2cde2	-0.317977
76	0xbe7c0043	-0.24609475
77	0x3e16e778	0.14736736
78	0x3c333091	0.010936872
79	0x3e812b8e	0.25228542
80	0xbe867fe7	-0.26269457
81	0x3bd4d59f	0.006495192
82	0xbe88378d	-0.26604882
83	0x3e993b6f	0.29928157
84	0x3e1a0e7a	0.15044585
85	0xbe3dc879	-0.18533505
86	0x3e83aa6d	0.25715962
87	0xbe853418	-0.26016307
88	0x3e2168ff	0.15762709
89	0xbe193364	-0.1496101
90	0xbe996482	-0.29959494
91	0xbe8d72d4	-0.2762667
92	0xbe1f358e	-0.15547773
93	0xbe30e39b	-0.17274325
94	0xbe7ac633	-0.2448967
95	0x3d6119b6	0.05495616
96	0xbe2252a3	-0.15851836
97	0xbe5ae5db	-0.21376745
98	0xbdc91f96	-0.09820478
99	0x3e4f4302	0.20240405
100	0xbd97e8cd	-0.0741745
101	0x3d115921	0.03548539
102	0x3e1ceeb6	0.15325436
103	0x3da8d5d6	0.08243911
104	0xbe987c84	-0.29782498
105	0x3e5faf04	0.21844107
106	0x3d925857	0.07145756
107	0xbe3af548	-0.1825763
108	0x3e10c68c	0.1413824
109	0xbea9d876	-0.3317296
110	0xbe2de232	-0.16980818
111	0x3d826436	0.0636677
112	0x3b6ed812	0.0036444706
113	0xbe6f4984	-0.23367888
114	0x3db5e750	0.0888201
115	0x3e197135	0.14984591
116	0xbecfbec8	-0.40575242
117	0xbd580240	-0.05273652
118	0xbe4bea20	-0.1991353
119	0x3e78e6ce	0.24306795
120	0x3c8ccceb	0.017187556
121	0xbea3a230	-0.31959677
122	0x3e65d5fb	0.22444908
123	0xbe78b996	-0.24289545
124	0xbe6519ae	-0.22373077
125	0xbe924f52	-0.28576142
126	0xbc22d555	-0.009938558
127	0xbe579ccc	-0.21055907
128	0xbd9be4f4	-0.07612029
129	0xbeab9a22	-0.33516032
130	0x3ddd4690	0.10804474
131	0xbe741a3b	-0.23838131
132	0x3e363afc	0.17795938
133	0xbeb7ac02	-0.3587342
134	0xbd9d72f3	-0.076879404
135	0xbe413528	-0.18867934
136	0xbea8854a	-0.3291419
137	0xbe85169b	-0.2599381
138	0xbe894793	-0.2681242
139	0x3e450280	0.19239235
140	0xbd421600	-0.047384262
141	0xbdc85ba6	-0.097831056
142	0xbe8eede7	-0.2791588
143	0x3ea56502	0.32303625
144	0xbd3dcb66	-0.046336554
145	0x3cfb172b	0.030650696
146	0xbeaa3dd5	-0.332503
147	0xbe981070	-0.2970004
148	0x3da1d5c2	0.07902099
149	0xbcd118bf	-0.025524495
150	0x3ebd1de2	0.3693686
151	0xbe3016d5	-0.1719621
152	0x3e3a3ee1	0.18188049
153	0xbdfdfdac	-0.124019
154	0xbe7b3781	-0.24532892
155	0x3db513dc	0.088416785
156	0x3e87299c	0.26398933
157	0x3e9380d4	0.28809226
158	0xbe00c977	-0.12576853
159	0x3e681a69	0.22666325
160	0x3e7c0cb4	0.24614221
161	0xbd2b355b	-0.04179893
162	0xbe6786c8	-0.22610009
163	0xbe7a5ec8	-0.24450219
164	0xbe8355ce	-0.256514
165	0x3c75dd00	0.015006304
166	0xbea4a56e	-0.32157463
167	0xbe9fde17	-0.3122413
168	0x3e92a21e	0.2863931
169	0xbe93857a	-0.28812772
170	0xbe6f448b	-0.23365991
171	0x3c411780	0.011785388
172	0xbea01a0e	-0.31269878
173	0x3e34fb00	0.17673874
174	0xbda9f86b	-0.08299335
175	0x3dc673fb	0.0969009
176	0x3c935b2b	0.017987808
177	0x3ea97398	0.33096004
178	0xbe93fe43	-0.28904924
179	0xbe78f608	-0.24312603
180	0x3e52cda6	0.20586261
181	0xbdd86c17	-0.105674915
182	0xbbc6b2d3	-0.006063798
183	0xbe89e3d6	-0.26931638
184	0x3deffa76	0.117176935
185	0x3e9bc4fb	0.30423722
186	0x3e5c573b	0.21517651
187	0x3c19eea0	0.009395272
188	0x3e9f88fb	0.31159195
189	0x3dc1c4c1	0.09461356
190	0xbe82d3c8	-0.255522
191	0x3d3cd625	0.04610266
192	0x3e85b414	0.2611395
193	0xbe6bd58a	-0.23030677
194	0xbeada78b	-0.33916888
195	0xbe8b5f46	-0.27221125
196	0x3c82c719	0.015964078
197	0x3dd23c19	0.10265369
198	0x3acfd36b	0.0015855854
199	0x3de7ee68	0.11324769
200	0xbd9f6241	-0.07782412
201	0xbc0198bf	-0.007909953
202	0x3ddb0897	0.10694998
203	0xbd25e517	-0.04050168
204	0xbf1e5e27	-0.61862415
205	0xbe6f4f35	-0.23370059
206	0xbddb3cf2	-0.10704984
207	0xbe59402e	-0.21215889
208	0xbe0b83f0	-0.13624549
209	0xbe6a87de	-0.22903392
210	0xbe6c4c78	-0.23076046
211	0xbd1895ab	-0.03725211
212	0x3e9350e7	0.2877266
213	0xbe3bfcbb	-0.18358128
214	0xbea0579f	-0.3131685
215	0x3e29e496	0.16591105

fc1.bias f4 [24]
0	0x3e5e26d6	0.21694502
1	0x3b7976b2	0.0038065133
2	0xbd924af1	-0.071432
3	0x3e75cf33	0.24004821
4	0x3d82137a	0.06351371
5	0x3ea0ea83	0.31428918
6	0xbe396533	-0.1810501
7	0xbde9b822	-0.11412074
8	0xbc6843fd	-0.014176366
9	0x3d202c39	0.039104674
10	0x3df2bb4b	0.118521295
11	0x3ecbb9d0	0.397902
12	0x3c770723	0.015077385
13	0x3e8bda04	0.2731477
14	0x3d5fe23f	0.054659124
15	0xbdd773a0	-0.105201006
16	0xbd585007	-0.052810695
17	0xbe0080ca	-0.12549129
18	0x3de96a50	0.113972306
19	0x3d220700	0.039557457
20	0xbe84bcc7	-0.25925276
21	0xbe8d3dbf	-0.2758617
22	0xbd5a5eb9	-0.05331299
23	0x3e2ad8a8	0.1668421

fc2.weight f4 [24, 24]
0	0x3daf4280	0.08557606
1	0xbd37c67c	-0.044867024
2	0xbe2d816e	-0.16943905
3	0x3b1d2b52	0.002398212
4	0xbe057b09	-0.13035215
5	0x3e3863c6	0.1800681
6	0xbdfce1f6	-0.12347786
7	0xbe1fef6f	-0.1561868
8	0xbe425837	-0.18978964
9	0x3cc26d6e	0.02373382
10	0xbc33f4ae	-0.010983629
11	0x3be91698	0.007113289
12	0xbbc3b336	-0.0059722913
13	0xbdd55d2c	-0.10418162
14	0x3e4683b8	0.19386184
15	0x3ddf4afb	0.10902973
16	0xbe3a53a8	-0.18195975
17	0x3d05d052	0.032669373
18	0x3e3e3db2	0.18578222
19	0x3e17ae1e	0.14812514
20	0xbd9c440f	-0.07630169
21	0xbd8446aa	-0.064587906
22	0x3e408a63	0.1880279
23	0xbd5d58dd	-0.054039825
24	0xbdca5946	-0.09880309
25	0x3c1b71e3	0.009487602
26	0xbdfd27f4	-0.12361136
27	0x3c11dffd	0.008903501
28	0xbccfe887	-0.025379432
29	0xbcee8636	-0.029116731
30	0x3d30470e	0.043036513
31	0x3da7efcc	0.082000345
32	0xbd4d1460	-0.05006826
33	0x3df1a9e6	0.11799984
34	0xbd19facc	-0.037592694
35	0xbe520373	-0.20509128
36	0xbd0f250b	-0.034947436
37	0xbc9ef975	-0.01940606
38	0xbe3952aa	-0.1809794
39	0x3d98f2f4	0.07468215
40	0xbca9d5ea	-0.020731885
41	0xbd984806	-0.074356124
42	0xbcdaea49	-0.026723044
43	0x3df684d9	0.120370574
44	0xbd8176a2	-0.063214555
45	0x3cab8518	0.020937487
46	0x3d435df7	0.047697034
47	0x3e13ec13	0.14445524
48	0xbb23e1a3	-0.0025006316
49	0xbe62676c	-0.22109765
50	0xbe8440d5	-0.25830713
51	0xbe3ec2e2	-0.1862903
52	0x3e09b39d	0.13447423
53	0xbdae120a	-0.084995344
54	0xbd725d0b	-0.059170764
55	0xbd86f0e5	-0.06588916
56	0xbe840fab	-0.25793204
57	0x3db43086	0.087983176
58	0xbcb5cc69	-0.022192197
59	0x3d68218e	0.056672625
60	0xbd249a23	-0.04018606
61	0x3da87e99	0.082272716
62	0xbde6fa6e	-0.112782344
63	0x3d8c0d04	0.0683842
64	0xbe2f7abc	-0.17136663
65	0x3dcbd7d8	0.09953278
66	0xbde98207	-0.11401754
67	0xbe2d5f69	-0.16930927
68	0x3e1234b2	0.14277914
69	0xbd3436a6	-0.04399743
70	0xbc331fad	-0.010932845
71	0xbd9f22f5	-0.077703394
72	0xbc7c1ac0	-0.015387237
73	0xbcfca3fd	-0.030839914
74	0x3e107adb	0.14109366
75	0xbd8655ab	-0.065593086
76	0xbe00e889	-0.12588705
77	0xbe35dda8	-0.17760336
78	0x3d303ab0	0.04302472
79	0x3e204754	0.1565221
80	0x3d8d97f9	0.06913752
81	0xbde698c2	-0.11259605
82	0xbd02de97	-0.03195056
83	0xbd5c997d	-0.053857315
84	0xbda81eea	-0.082090214
85	0x3e05329d	0.13007589
86	0x3dab06ef	0.08350932
87	0x3e074f35	0.13213809
88	0xbe0724b3	-0.13197593
89	0x3d4f8cc5	0.050671358
90	0xbdd5a18b	-0.104312025
91	0xbd925525	-0.07145146
92	0xbde73b1f	-0.11290573
93	0x3ba8de25	0.005153435
94	0x3d91ed39	0.07125325
95	0xbe431e5f	-0.19054554
96	0xbc7cf2eb	-0.0154387755
97	0x3c5f3f25	0.013625895
98	0x3dc817a5	0.09770135
99	0x3d5ea6f4	0.054358438
100	0x3d9b4625	0.075817384
101	0xbdbbcfed	-0.09170518
102	0x3dea169d	0.114300944
103	0xbe280ca5	-0.16411074
104	0x3d8f6b33	0.070028685
105	0x3d37fefa	0.0449209
106	0xbe012512	-0.12611797
107	0xbdff63e6	-0.12470226
108	0xbe9e205a	-0.30884057
109	0x3e0f127b	0.13971893
110	0x3d822c57	0.063561134
111	0xbddf9174	-0.10916415
112	0xbdd06e78	-0.1017732
113	0x3dca6011	0.098816045
114	0x3dc34ee6	0.09536533
115	0x3e19a5e0	0.15004683
116	0x3d6bb7bd	0.057548273
117	0x3ca1950c	0.019724391
118	0x3c826715	0.015918294
119	0x3e2285c7	0.15871345
120	0xbe23b7e2	-0.15988114
121	0xbda16839	-0.07881207
122	0x3c0c5678	0.008565538
123	0xbdf2f1ac	-0.118625015
124	0x3d827b58	0.06371182
125	0x3e3b6322	0.18299535
126	0x3db029e5	0.08601741
127	0xbe536a2a	-0.20645967
128	0xbcad709e	-0.021171864
129	0xbaec733a	-0.0018039711
130	0xbdf92e99	-0.12167091
131	0xbba499d5	-0.005023221
132	0x3dcfad3a	0.10140462
133	0x3dc707b9	0.0971827
134	0x3c5efe30	0.013610408
135	0x3d21014f	0.03930789
136	0x3de0cf10	0.10976994
137	0xbe6f64cf	-0.23378299
138	0xbe2e4aa6	-0.17020664
139	0xbe029432	-0.12751845
140	0x3dcb3c62	0.099236265
141	0xbd113fd7	-0.035461273
142	0x3db5d6f0	0.08878887
143	0x3e155892	0.14584568
144	0xbe3b4ef4	-0.18291837
145	0xbde4b0a7	-0.11166506
146	0x3dcf3e57	0.10119312
147	0xbe251de3	-0.16124682
148	0xbd8019a5	-0.06254891
149	0xbdc6f180	-0.09714031
150	0x3c9f7a08	0.019467369
151	0x3e109557	0.14119469
152	0x3e1a8c10	0.15092492
153	0x3e0f2565	0.13979109
154	0x3de0b5f6	0.10972206
155	0x3d62a209	0.05533031
156	0x3c371855	0.011175235
157	0xbe0150b2	-0.12628439
158	0x3d796063	0.060882937
159	0x3dba543b	0.09098097
160	0xbe2bb7ed	-0.16769381
161	0x3d9712f1	0.0737666
162	0x3e207115	0.15668137
163	0x3da0bc4a	0.07848413
164	0xbe5bb436	-0.21455464
165	0x3d863d42	0.06554653
166	0x3d947f7e	0.0725088
167	0xbe4850e3	-0.19562106
168	0x3df8f741	0.12156535
169	0x3d79c609	0.060979877
170	0x3e0d5cd9	0.1380495
171	0xbe054a07	-0.1301652
172	0xbe4cf9dc	-0.20017189
173	0x3e2fe41e	0.17176864
174	0xbe395a6a	-0.18100896
175	0x3d94efd4	0.07272306
176	0x3cb7c690	0.02243355
177	0xbe01c6f2	-0.12673548
178	0xbe18eeca	-0.14934841
179	0x3caf2490	0.021379739
180	0xbb711cd1	-0.0036790858
181	0xbcc3f405	-0.023920069
182	0xbe13d742	-0.14437583
183	0xbd0167f2	-0.03159327
184	0x3d820f82	0.06350614
185	0x3e0778e2	0.13229707
186	0xbb32aeff	-0.002726495
187	0x3e33234c	0.17493933
188	0xbd4942a6	-0.049135827
189	0xbdf0a53a	-0.117502645
190	0x3d3ecab1	0.04658002
191	0x3e191a86	0.14951524
192	0x3e3d3459	0.18477
193	0xbd9bad8b	-0.0760146
194	0x3dcc0e37	0.09963649
195	0x3e0385f3	0.12844066
196	0xbdb71eb8	-0.08941406
197	0xbdab52a3	-0.08365371
198	0x3e20ac65	0.15690763
199	0xbe121027	-0.14263974
200	0xbbd4683a	-0.0064821513
201	0xbe3935fd	-0.18087001
202	0xbe16cb1b	-0.14725916
203	0x3e16b0fd	0.14715953
204	0xbda6dc04	-0.081474334
205	0xbe24eaac	-0.16105145
206	0xbc760c87	-0.015017635
207	0x3dbc9c31	0.09209479
208	0xbd67e356	-0.05661329
209	0x3d6097fb	0.05483244
210	0xbe239c99	-0.15977706
211	0x3dbcf71a	0.092268184
212	0xbd891b8e	-0.06694709
213	0xbc88cbe6	-0.016698789
214	0x3dbc264c	0.09186992
215	0xbe3988e5	-0.18118627
216	0x3dd9cc69	0.10634691
217	0x3dae97b1	0.085250266
218	0x3e1f24b7	0.1554135
219	0xbea3b867	-0.31976625
220	0xbe69d43f	-0.22834872
221	0x3c646a04	0.013941292
222	0xbd95bad6	-0.07311027
223	0xbde33310	-0.11093724
224	0xbce2e1d4	-0.027695574
225	0x3d7855ba	0.06062863
226	0x3d1eb5a3	0.03874744
227	0x3da064c4	0.078317195
228	0xbde717fd	-0.11283872
229	0xbdb775d1	-0.089580186
230	0x3d4eff2a	0.050536312
231	0xbe3fd0eb	-0.1873204
232	0xbe0afc34	-0.1357277
233	0xbe2c541c	-0.1682896
234	0xbc8253f1	-0.015909167
235	0x3dcb3f9e	0.099242434
236	0xbd1882b5	-0.037234027
237	0x3e203b03	0.15647511
238	0x3e021afa	0.12705603
239	0x3d9e3915	0.07725731
240	0x3d6a9209	0.057268176
241	0x3d550a56	0.05201181
242	0xbc06cf28	-0.008228101
243	0x3d53f097	0.051743116
244	0xbe4cae63	-0.19988398
245	0x3d8ca323	0.06867053
246	0x3ddff8f1	0.10936154
247	0xbda1c52d	-0.078989364
248	0xbe2a9928	-0.16659987
249	0xbe0f0b40	-0.13969135
250	0xbb888aa1	-0.0041669165
251	0x3deaab32	0.11458434
252	0x3c277a75	0.010222067
253	0x3e2f2b09	0.1710626
254	0x3cb51600	0.022105217
255	0xbdf612df	-0.12015318

fc2.bias f4 [24]
0	0x3e07aaff	0.13248824
1	0xbd7b3fab	-0.061340015
2	0xbcc15109	-0.02359821
3	0x3e9e2071	0.30884126
4	0x3e9de8c4	0.3084165
5	0x3d1229de	0.03568446
6	0xbe59b481	-0.21260263
7	0x3d1f71ae	0.038926773
8	0xbe1cd181	-0.15314294
9	0x3d1f0e98	0.038832277
10	0x3daa6ca3	0.08321502
11	0x3e0eed51	0.13957717
12	0xbe895ab4	-0.26827013
13	0x3e993d92	0.29929787
14	0xbdde9ebf	-0.10870122
15	0xbe1780e0	-0.14795256
16	0x3ba3b801	0.0049963
17	0xbec707cf	-0.38873145
18	0xbe1ac5ae	-0.15114471
19	0x3de63641	0.11240817
20	0xbdb8f724	-0.09031513
21	0xbdd8f936	-0.10594408
22	0xbdd071ae	-0.10177933
23	0xbec37aa5	-0.38179508

fc3.weight f4 [5, 24]
0	0x3d905d85	0.070490874
1	0x3d34e9a6	0.044168137
2	0xbdbaa3a6	-0.09113245
3	0xbda2e9b8	-0.079547346
4	0x3cb447a1	0.022006812
5	0x3cd5ac19	0.02608304
6	0x3da448ce	0.08021699
7	0x3d964b47	0.07338577
8	0x3dbe7e5f	0.09301447
9	0x3c962638	0.018328771
10	0x3d15951b	0.03651915
11	0x3d22c777	0.039741006
12	0xbdb3712f	-0.087618224
13	0xbbd367e3	-0.0064515932
14	0x3d83cec1	0.064359196
15	0xba985c0b	-0.0011624111
16	0x3c0a0d08	0.008425958
17	0xbd64276e	-0.055701666
18	0xbccd6a0e	-0.025074985
19	0xbcb3f67a	-0.021968115
20	0xbe3694a4	-0.1783014
21	0xbe16ffc8	-0.1474601
22	0x3d9d85aa	0.0769151
23	0xbd4a2cf5	-0.04935928
24	0x3e23e89a	0.16006699
25	0x3c472604	0.01215506
26	0x3e17625c	0.14783615
27	0x3c998582	0.01874042
28	0x3cc9be4c	0.024626873
29	0x3d137084	0.035995975
30	0x3d953322	0.072851434
31	0xbc02e02a	-0.007988015
32	0x3ddc98dc	0.10771343
33	0x3ce33b00	0.027738094
34	0x3d407fee	0.046997003
35	0x3e14c9dc	0.14530128
36	0x3b51f060	0.0032034144
37	0x3b736dbe	0.003714427
38	0x3e3ef1bb	0.186469
39	0x3d8e70c7	0.06955104
40	0xbdcde07b	-0.10052582
41	0xbdff9420	-0.124794245
42	0x3e2727da	0.16323796
43	0xbdeba3d3	-0.11505856
44	0x3df20674	0.11817637
45	0xbc207337	-0.009793094
46	0xbe073c2e	-0.1320655
47	0xbd2b05e1	-0.041753653
48	0xbd1a3a0d	-0.037653018
49	0xbd096958	-0.03354773
50	0xbd04b55b	-0.032399517
51	0x3c9ccb83	0.01914001
52	0x3cdd4cc5	0.027014146
53	0x3d72b645	0.059255857
54	0xbbec5dcd	-0.0072133304
55	0xbcbbc128	-0.022919253
56	0xbce63cf3	-0.028105235
57	0x3c9d2bd4	0.019185938
58	0xbdbd321a	-0.09238072
59	0x3db396af	0.08768975
60	0x3c8a8a20	0.016911566
61	0x3d9057a4	0.07047966
62	0x3cfd668e	0.030932691
63	0xbc6a1150	-0.014286354
64	0x3c9b6d85	0.018973121
65	0xbdaadc4d	-0.083428
66	0xbca88399	-0.020570563
67	0x3dc85204	0.09781268
68	0xbe151fd6	-0.14562926
69	0xbdc01d59	-0.093805976
70	0x3d0803de	0.033206813
71	0xbd8c8a40	-0.068623066
72	0x3e0250dc	0.12726158
73	0xbc3900ec	-0.011291724
74	0x3e0d42a0	0.13794947
75	0x3b3d5abd	0.0028893196
76	0x3b857465	0.004072713
77	0x3db790fe	0.08963202
78	0xbe2b283a	-0.16714564
79	0x3c8d18a5	0.017223665
80	0x3dadc0bf	0.08484029
81	0xbc51a58c	-0.012795817
82	0x3c8e036a	0.017335612
83	0x3d49407b	0.04913376
84	0xbc15e292	-0.009148257
85	0x3d480d47	0.048840787
86	0x3d0dd1da	0.03462396
87	0x3d34692f	0.044045623
88	0xbd121da5	-0.035672802
89	0xbded0e7c	-0.11575028
90	0x3c79c166	0.015243864
91	0x3de01a55	0.109425224
92	0x3e00017b	0.12500565
93	0xbd2baa50	-0.04191047
94	0xbc8c6f90	-0.01714304
95	0xbd22c552	-0.03973896
96	0x3e460784	0.19338804
97	0x3c447b32	0.011992263
98	0xbd8cfc5d	-0.06884072
99	0xbd2a9527	-0.04164615
100	0x3c2e6de6	0.010646319
101	0x3d3810b6	0.04493781
102	0xbe3c1dd7	-0.18370758
103	0x3d513fec	0.05108635
104	0xbe0c880f	-0.13723777
105	0x3bd14076	0.006385858
106	0xbe02d115	-0.12775071
107	0x3d3eb706	0.046561264
108	0xbd220aa9	-0.039560948
109	0x3c7b2f73	0.015331137
110	0x3e226947	0.15860473
111	0xb8151cd9	-3.5551235e-05
112	0x3da29b57	0.07939785
113	0xbd90cce5	-0.070703305
114	0xbd9bf3a6	-0.076148316
115	0xbde822e2	-0.11334778
116	0x3e25cfa6	0.16192493
117	0xbc41237e	-0.011788247
118	0xbcd07de0	-0.025450647
119	0xbd8e6ee4	-0.069547445

fc3.bias f4 [5]
0	0x3e267a16	0.1625751
1	0x3e273abf	0.16331004
2	0x3e1fde4d	0.15612145
3	0x3e28f528	0.1649977
4	0x3eee1354	0.4649912

exp_avg f4 [24, 9]
0	0x00000000	0.0
1	0x00000000	0.0
2	0x00000000	0.0
3	0x00000000	0.0
4	0x00000000	0.0
5	0x00000000	0.0
6	0x00000000	0.0
7	0x00000000	0.0
8	0x00000000	0.0
9	0x80035891	-3.07278e-40
10	0x8005b6a2	-5.24694e-40
11	0x80000007	-1e-44
12	0x80003978	-2.0616e-41
13	0x80003a0d	-2.0825e-41
14	0x80000004	-6e-45
15	0x80000004	-6e-45
16	0x80000004	-6e-45
17	0x80004b28	-2.6961e-41
18	0x00060ed1	5.56328e-40
19	0x000a58d1	9.50216e-40
20	0x0000000d	1.8e-44
21	0x000067c1	3.722e-41
22	0x000068c6	3.7586e-41
23	0x00000004	6e-45
24	0x00000004	6e-45
25	0x00000004	6e-45
26	0x00008774	4.8591e-41
27	0x80006051	-3.4552e-41
28	0x8000a52a	-5.925e-41
29	0x80000004	-6e-45
30	0x8000062c	-2.214e-42
31	0x80000637	-2.23e-42
32	0x80000004	-6e-45
33	0x80000004	-6e-45
34	0x80000004	-6e-45
35	0x800007d5	-2.81e-42
36	0x8000d341	-7.5784e-41
37	0x80016a3c	-1.29945e-40
38	0x80000004	-6e-45
39	0x80000d8d	-4.861e-42
40	0x80000da2	-4.89e-42
41	0x80000004	-6e-45
42	0x80000004	-6e-45
43	0x80000004	-6e-45
44	0x8000112f	-6.164e-42
45	0x00000000	0.0
46	0x00000000	0.0
47	0x00000000	0.0
48	0x00000000	0.0
49	0x00000000	0.0
50	0x00000000	0.0
51	0x00000000	0.0
52	0x00000000	0.0
53	0x00000000	0.0
54	0x00000004	6e-45
55	0x00000004	6e-45
56	0x00000004	6e-45
57	0x00000004	6e-45
58	0x00000004	6e-45
59	0x00000004	6e-45
60	0x00000004	6e-45
61	0x00000004	6e-45
62	0x00000004	6e-45
63	0x0006d661	6.27918e-40
64	0x000badf0	1.072587e-39
65	0x0000000e	2e-44
66	0x000074fd	4.1967e-41
67	0x00007622	4.2378e-41
68	0x00000004	6e-45
69	0x00000004	6e-45
70	0x00000004	6e-45
71	0x0000989e	5.4749e-41
72	0x80000004	-6e-45
73	0x80000004	-6e-45
74	0x80000004	-6e-45
75	0x80000004	-6e-45
76	0x80000004	-6e-45
77	0x80000004	-6e-45
78	0x80000004	-6e-45
79	0x80000004	-6e-45
80	0x80000004	-6e-45
81	0x00000004	6e-45
82	0x00000004	6e-45
83	0x00000004	6e-45
84	0x00000004	6e-45
85	0x00000004	6e-45
86	0x00000004	6e-45
87	0x00000004	6e-45
88	0x00000004	6e-45
89	0x00000004	6e-45
90	0x00000000	0.0
91	0x00000000	0.0
92	0x00000000	0.0
93	0x00000000	0.0
94	0x00000000	0.0
95	0x00000000	0.0
96	0x00000000	0.0
97	0x00000000	0.0
98	0x00000000	0.0
99	0x800510bb	-4.65179e-40
100	0x8008a619	-7.94269e-40
101	0x8000000b	-1.5e-44
102	0x8000570e	-3.123e-41
103	0x800057f1	-3.1547e-41
104	0x80000004	-6e-45
105	0x80000004	-6e-45
106	0x80000004	-6e-45
107	0x800071ea	-4.0865e-41
108	0x00000004	6e-45
109	0x00000004	6e-45
110	0x00000004	6e-45
111	0x00000004	6e-45
112	0x00000004	6e-45
113	0x00000004	6e-45
114	0x00000004	6e-45
115	0x00000004	6e-45
116	0x00000004	6e-45
117	0x00000000	0.0
118	0x00000000	0.0
119	0x00000000	0.0
120	0x00000000	0.0
121	0x00000000	0.0
122	0x00000000	0.0
123	0x00000000	0.0
124	0x00000000	0.0
125	0x00000000	0.0
126	0x00000004	6e-45
127	0x00000004	6e-45
128	0x00000004	6e-45
129	0x00000004	6e-45
130	0x00000004	6e-45
131	0x00000004	6e-45
132	0x00000004	6e-45
133	0x00000004	6e-45
134	0x00000004	6e-45
135	0x00000000	0.0
136	0x00000000	0.0
137	0x00000000	0.0
138	0x00000000	0.0
139	0x00000000	0.0
140	0x00000000	0.0
141	0x00000000	0.0
142	0x00000000	0.0
143	0x00000000	0.0
144	0x8008ebb0	-8.19233e-40
145	0x800f3c17	-1.399089e-39
146	0x80000013	-2.7e-44
147	0x800098f7	-5.4873e-41
148	0x80009a80	-5.5424e-41
149	0x80000004	-6e-45
150	0x80000004	-6e-45
151	0x80000004	-6e-45
152	0x8000c7d6	-7.1688e-41
153	0x00000004	6e-45
154	0x00000004	6e-45
155	0x00000004	6e-45
156	0x00000004	6e-45
157	0x00000004	6e-45
158	0x00000004	6e-45
159	0x00000004	6e-45
160	0x00000004	6e-45
161	0x00000004	6e-45
162	0x00000000	0.0
163	0x00000000	0.0
164	0x00000000	0.0
165	0x00000000	0.0
166	0x00000000	0.0
167	0x00000000	0.0
168	0x00000000	0.0
169	0x00000000	0.0
170	0x00000000	0.0
171	0x00000000	0.0
172	0x00000000	0.0
173	0x00000000	0.0
174	0x00000000	0.0
175	0x00000000	0.0
176	0x00000000	0.0
177	0x00000000	0.0
178	0x00000000	0.0
179	0x00000000	0.0
180	0x8006fe99	-6.42345e-40
181	0x800bf1ce	-1.096934e-39
182	0x8000000f	-2.1e-44
183	0x80007806	-4.3056e-41
184	0x8000793a	-4.3488e-41
185	0x80000004	-6e-45
186	0x80000004	-6e-45
187	0x80000004	-6e-45
188	0x80009ce3	-5.628e-41
189	0x00000004	6e-45
190	0x00000004	6e-45
191	0x00000004	6e-45
192	0x00000004	6e-45
193	0x00000004	6e-45
194	0x00000004	6e-45
195	0x00000004	6e-45
196	0x00000004	6e-45
197	0x00000004	6e-45
198	0x00031478	2.82849e-40
199	0x000542cc	4.8314e-40
200	0x00000006	8e-45
201	0x000034b7	1.891e-41
202	0x0000353c	1.9097e-41
203	0x00000004	6e-45
204	0x00000004	6e-45
205	0x00000004	6e-45
206	0x000044c8	2.4674e-41
207	0x00000000	0.0
208	0x00000000	0.0
209	0x00000000	0.0
210	0x00000000	0.0
211	0x00000000	0.0
212	0x00000000	0.0
213	0x00000000	0.0
214	0x00000000	0.0
215	0x00000000	0.0

exp_avg_sq f4 [24, 9]
0	0x00000000	0.0
1	0x00000000	0.0
2	0x00000000	0.0
3	0x00000000	0.0
4	0x00000000	0.0
5	0x00000000	0.0
6	0x00000000	0.0
7	0x00000000	0.0
8	0x00000000	0.0
9	0x4f9892ab	5.1194977e+09
10	0x4fb745fc	6.149634e+09
11	0x400b4d88	2.1766071
12	0x4c8d5264	7.409334e+07
13	0x4c96120c	7.868016e+07
14	0x3d0b031c	0.033938512
15	0x3d33e46d	0.043919016
16	0x3e9ceaef	0.3064799
17	0x4e1bc9b2	6.534217e+08
18	0x5090d642	1.9439686e+10
19	0x50aef5e4	2.3482802e+10
20	0x4102dfb8	8.179619
21	0x4d88af92	2.8665094e+08
22	0x4d8e1a07	2.980088e+08
23	0x3df51d36	0.11968462
24	0x3e4158aa	0.18881479
25	0x3f9cae93	1.2240776
26	0x4f2af982	2.8684785e+09
27	0x5001005f	8.657141e+09
28	0x50011f2e	8.665217e+09
29	0x40428f4f	3.0399969
30	0x4ccbabf9	1.06782664e+08
31	0x4cd80c01	1.1327079e+08
32	0x3d4ed68e	0.050497584
33	0x3d874af3	0.06606092
34	0x3ee08be3	0.43856725
35	0x4e62f0b2	9.5185626e+08
36	0x51b66c35	9.793743e+10
37	0x51817eb3	6.9522055e+10
38	0x41c3efaf	24.492033
39	0x4e67090d	9.690325e+08
40	0x4e72beb4	1.01814605e+09
41	0x3f05475f	0.5206203
42	0x3f121d5e	0.5707606
43	0x40610bb0	3.5163383
44	0x4fe2633f	7.59631e+09
45	0x00000000	0.0
46	0x00000000	0.0
47	0x00000000	0.0
48	0x00000000	0.0
49	0x00000000	0.0
50	0x00000000	0.0
51	0x00000000	0.0
52	0x00000000	0.0
53	0x00000000	0.0
54	0x4ef8671a	2.0837532e+09
55	0x4f310d6b	2.9704466e+09
56	0x3f860c38	1.0472479
57	0x4c2f31b4	4.5926096e+07
58	0x4c3e90f7	4.9955804e+07
59	0x3c9cc983	0.019139057
60	0x3ca1abe7	0.01973529
61	0x3ed50407	0.41604635
62	0x4e5ea3c9	9.3381894e+08
63	0x5054c06d	1.4277522e+10
64	0x505355cb	1.418246e+10
65	0x409e5766	4.9481688
66	0x4d48d39e	2.1058198e+08
67	0x4d5a72f7	2.2906046e+08
68	0x3dd22d01	0.1026249
69	0x3debcb1a	0.11513348
70	0x3f951ea9	1.1649982
71	0x4f183b9c	2.5540434e+09
72	0x4fce9b57	6.9325737e+09
73	0x4c2e6f07	4.5726748e+07
74	0x3d3ccc39	0.0460932
75	0x4b179703	9.934595e+06
76	0x4b0dae27	9.285159e+06
77	0x3c88ea08	0.016713157
78	0x3997cc32	0.00028953102
79	0x3c6d1e8e	0.014472617
80	0x4b059fa7	8.757159e+06
81	0x4d0e199c	1.4900269e+08
82	0x484346e0	199963.5
83	0x3a064db8	0.00051232753
84	0x47f59a60	125748.75
85	0x47a3a448	83784.56
86	0x396117ca	0.00021466534
87	0x36877b6f	4.037683e-06
88	0x398c4cba	0.00026760047
89	0x47e1c283	115589.02
90	0x00000000	0.0
91	0x00000000	0.0
92	0x00000000	0.0
93	0x00000000	0.0
94	0x00000000	0.0
95	0x00000000	0.0
96	0x00000000	0.0
97	0x00000000	0.0
98	0x00000000	0.0
99	0x4fe7132c	7.7535867e+09
100	0x4fa2dc67	5.4647066e+09
101	0x40009161	2.0088732
102	0x4c9c4671	8.193319e+07
103	0x4c9e6b86	8.305771e+07
104	0x3d35e1e1	0.044404868
105	0x3d080c4c	0.033214852
106	0x3dab24e1	0.083566435
107	0x4d0f418f	1.502149e+08
108	0x4f2ebb29	2.9315013e+09
109	0x4c276196	4.3877976e+07
110	0x3c880d21	0.016607823
111	0x4a38cb2b	3.0276588e+06
112	0x4a9701e5	4.9482105e+06
113	0x3ba87a4b	0.0051415316
114	0x389fbc8d	7.616831e-05
115	0x3baf73b4	0.005354369
116	0x4a1eef27	2.6039778e+06
117	0x00000000	0.0
118	0x00000000	0.0
119	0x00000000	0.0
120	0x00000000	0.0
121	0x00000000	0.0
122	0x00000000	0.0
123	0x00000000	0.0
124	0x00000000	0.0
125	0x00000000	0.0
126	0x4ff45fa4	8.199817e+09
127	0x4bda819f	2.8640062e+07
128	0x3d30853f	0.043095823
129	0x4b040a07	8.653319e+06
130	0x4ad3fa73	6.9461055e+06
131	0x3c7c8d89	0.015414604
132	0x398288a2	0.00024897332
133	0x3c617ac1	0.013762177
134	0x4aecc8a9	7.7589325e+06
135	0x00000000	0.0
136	0x00000000	0.0
137	0x00000000	0.0
138	0x00000000	0.0
139	0x00000000	0.0
140	0x00000000	0.0
141	0x00000000	0.0
142	0x00000000	0.0
143	0x00000000	0.0
144	0x5044d30b	1.3208661e+10
145	0x4fd878a4	7.26357e+09
146	0x4024928b	2.5714443
147	0x4c95e798	7.859322e+07
148	0x4ca17a03	8.466025e+07
149	0x3d2d0adb	0.04224668
150	0x3d29dd50	0.041470826
151	0x3ef764de	0.48319143
152	0x4e60f784	9.435794e+08
153	0x474ce172	52449.445
154	0x47782e4a	63534.29
155	0x382e4faf	4.1559044e-05
156	0x466cf0e6	15164.225
157	0x4690e015	18544.041
158	0x374edd0d	1.2330024e-05
159	0x350bd23c	5.2087466e-07
160	0x37a34c1e	1.9466559e-05
161	0x4697727d	19385.244
162	0x00000000	0.0
163	0x00000000	0.0
164	0x00000000	0.0
165	0x00000000	0.0
166	0x00000000	0.0
167	0x00000000	0.0
168	0x00000000	0.0
169	0x00000000	0.0
170	0x00000000	0.0
171	0x00000000	0.0
172	0x00000000	0.0
173	0x00000000	0.0
174	0x00000000	0.0
175	0x00000000	0.0
176	0x00000000	0.0
177	0x00000000	0.0
178	0x00000000	0.0
179	0x00000000	0.0
180	0x50fdaaa2	3.4046546e+10
181	0x504a9641	1.3595379e+10
182	0x409bd801	4.8701177
183	0x4d32bfdc	1.8743238e+08
184	0x4d33e7ff	1.8864536e+08
185	0x3de68c6d	0.11257253
186	0x3ddc0365	0.10742835
187	0x3f7e9899	0.99451596
188	0x4ef5b0de	2.0610045e+09
189	0x4f6f7217	4.0172316e+09
190	0x4ca24912	8.50843e+07
191	0x3d347000	0.044052124
192	0x4af93a64	8.166706e+06
193	0x4b147560	9.729376e+06
194	0x3c423566	0.0118535515
195	0x39fbf6fc	0.00048058468
196	0x3c904356	0.017610233
197	0x4baac49b	2.2382902e+07
198	0x50063a3b	9.007853e+09
199	0x4f7bd39b	4.224949e+09
200	0x3fbf1129	1.4927112
201	0x4c7b0e18	6.5812576e+07
202	0x4c875465	7.095172e+07
203	0x3d27a97f	0.04093313
204	0x3d0734bc	0.033009276
205	0x3edc31bf	0.43006703
206	0x4e590ad4	9.103414e+08
207	0x00000000	0.0
208	0x00000000	0.0
209	0x00000000	0.0
210	0x00000000	0.0
211	0x00000000	0.0
212	0x00000000	0.0
213	0x00000000	0.0
214	0x00000000	0.0
215	0x00000000	0.0

exp_avg f4 [24]
0	0x00000000	0.0
1	0x80000004	-6e-45
2	0x00000004	6e-45
3	0x80000004	-6e-45
4	0x80000004	-6e-45
5	0x00000000	0.0
6	0x00000004	6e-45
7	0x00000004	6e-45
8	0x80000004	-6e-45
9	0x00000004	6e-45
10	0x00000000	0.0
11	0x80000004	-6e-45
12	0x00000004	6e-45
13	0x00000000	0.0
14	0x00000004	6e-45
15	0x00000000	0.0
16	0x80000004	-6e-45
17	0x00000004	6e-45
18	0x00000000	0.0
19	0x00000000	0.0
20	0x80000004	-6e-45
21	0x00000004	6e-45
22	0x00000004	6e-45
23	0x00000000	0.0

exp_avg_sq f4 [24]
0	0x00000000	0.0
1	0x3c24187c	0.010015603
2	0x3d2e7b4c	0.042598054
3	0x3c762b7a	0.015025014
4	0x3e05617f	0.13025473
5	0x00000000	0.0
6	0x3b90cded	0.0044190795
7	0x3cd40daa	0.025885422
8	0x39862586	0.0002558643
9	0x36603765	3.3410845e-06
10	0x00000000	0.0
11	0x3c0531c0	0.008129537
12	0x389c43e7	7.4513075e-05
13	0x00000000	0.0
14	0x3961d2c2	0.00021536186
15	0x00000000	0.0
16	0x3c1c7619	0.009549641
17	0x349e793a	2.9517997e-07
18	0x00000000	0.0
19	0x00000000	0.0
20	0x3ccaa996	0.024739068
21	0x3970f5da	0.0002297977
22	0x3bf64cc8	0.0075164773
23	0x00000000	0.0

exp_avg f4 [24, 24]
0	0x00000000	0.0
1	0x00000000	0.0
2	0x00000000	0.0
3	0x00000000	0.0
4	0x00000000	0.0
5	0x00000000	0.0
6	0x00000000	0.0
7	0x00000000	0.0
8	0x00000000	0.0
9	0x00000000	0.0
10	0x00000000	0.0
11	0x00000000	0.0
12	0x00000000	0.0
13	0x00000000	0.0
14	0x00000000	0.0
15	0x00000000	0.0
16	0x00000000	0.0
17	0x00000000	0.0
18	0x00000000	0.0
19	0x00000000	0.0
20	0x00000000	0.0
21	0x00000000	0.0
22	0x00000000	0.0
23	0x00000000	0.0
24	0x00000000	0.0
25	0x00000004	6e-45
26	0x00000004	6e-45
27	0x00000004	6e-45
28	0x00000004	6e-45
29	0x00000000	0.0
30	0x00000004	6e-45
31	0x00000004	6e-45
32	0x80000004	-6e-45
33	0x00000000	0.0
34	0x00000000	0.0
35	0x00000004	6e-45
36	0x00000004	6e-45
37	0x00000000	0.0
38	0x00000000	0.0
39	0x00000000	0.0
40	0x00000004	6e-45
41	0x00000004	6e-45
42	0x00000000	0.0
43	0x00000000	0.0
44	0x00000004	6e-45
45	0x00000004	6e-45
46	0x00000004	6e-45
47	0x00000000	0.0
48	0x00000000	0.0
49	0x00000004	6e-45
50	0x00000004	6e-45
51	0x00000004	6e-45
52	0x00000004	6e-45
53	0x00000000	0.0
54	0x00000000	0.0
55	0x00000004	6e-45
56	0x00000004	6e-45
57	0x00000000	0.0
58	0x00000000	0.0
59	0x00000004	6e-45
60	0x00000004	6e-45
61	0x00000000	0.0
62	0x00000000	0.0
63	0x00000000	0.0
64	0x00000004	6e-45
65	0x00000000	0.0
66	0x00000000	0.0
67	0x00000000	0.0
68	0x00000004	6e-45
69	0x00000004	6e-45
70	0x00000004	6e-45
71	0x00000000	0.0
72	0x00000000	0.0
73	0x0014258c	1.850179e-39
74	0x00040208	3.6807e-40
75	0x000a31e8	9.36258e-40
76	0x0007ab2f	7.04258e-40
77	0x00000000	0.0
78	0x80000004	-6e-45
79	0x000aff76	1.009997e-39
80	0x80000004	-6e-45
81	0x00000000	0.0
82	0x00000000	0.0
83	0x0004b4a7	4.32148e-40
84	0x00000004	6e-45
85	0x00000000	0.0
86	0x00000000	0.0
87	0x00000000	0.0
88	0x000074f9	4.1962e-41
89	0x80000004	-6e-45
90	0x00000000	0.0
91	0x00000000	0.0
92	0x0002a5f8	2.4321e-40
93	0x80000004	-6e-45
94	0x000bf9b3	1.099766e-39
95	0x00000000	0.0
96	0x00000000	0.0
97	0x00000004	6e-45
98	0x00000004	6e-45
99	0x00000004	6e-45
100	0x00000004	6e-45
101	0x00000000	0.0
102	0x00000004	6e-45
103	0x00000004	6e-45
104	0x00000004	6e-45
105	0x00000000	0.0
106	0x00000000	0.0
107	0x00000004	6e-45
108	0x00000004	6e-45
109	0x00000000	0.0
110	0x00000000	0.0
111	0x00000000	0.0
112	0x00000004	6e-45
113	0x00000004	6e-45
114	0x00000000	0.0
115	0x00000000	0.0
116	0x00000004	6e-45
117	0x80000004	-6e-45
118	0x00000004	6e-45
119	0x00000000	0.0
120	0x00000000	0.0
121	0x00000004	6e-45
122	0x00000004	6e-45
123	0x00000004	6e-45
124	0x00000004	6e-45
125	0x00000000	0.0
126	0x00000004	6e-45
127	0x00000004	6e-45
128	0x00000004	6e-45
129	0x80000004	-6e-45
130	0x00000000	0.0
131	0x80000004	-6e-45
132	0x00000004	6e-45
133	0x00000000	0.0
134	0x00000004	6e-45
135	0x00000000	0.0
136	0x00000004	6e-45
137	0x00000004	6e-45
138	0x00000000	0.0
139	0x00000000	0.0
140	0x00000004	6e-45
141	0x00000004	6e-45
142	0x00000004	6e-45
143	0x00000000	0.0
144	0x00000000	0.0
145	0x00000004	6e-45
146	0x00000004	6e-45
147	0x00000004	6e-45
148	0x00000004	6e-45
149	0x00000000	0.0
150	0x00000004	6e-45
151	0x00000004	6e-45
152	0x00000004	6e-45
153	0x80000004	-6e-45
154	0x00000000	0.0
155	0x00000004	6e-45
156	0x00000004	6e-45
157	0x00000000	0.0
158	0x00000004	6e-45
159	0x00000000	0.0
160	0x00000004	6e-45
161	0x00000004	6e-45
162	0x00000000	0.0
163	0x00000000	0.0
164	0x00000004	6e-45
165	0x00000004	6e-45
166	0x00000004	6e-45
167	0x00000000	0.0
168	0x00000000	0.0
169	0x80089a64	-7.90069e-40
170	0x8001b632	-1.57195e-40
171	0x80045a28	-3.99684e-40
172	0x80034745	-3.01073e-40
173	0x00000000	0.0
174	0x00000004	6e-45
175	0x8004b357	-4.31677e-40
176	0x00000004	6e-45
177	0x00000004	6e-45
178	0x00000000	0.0
179	0x80020297	-1.846e-40
180	0x00000004	6e-45
181	0x00000000	0.0
182	0x00000004	6e-45
183	0x00000000	0.0
184	0x80003228	-1.7993e-41
185	0x00000004	6e-45
186	0x00000000	0.0
187	0x00000000	0.0
188	0x8001230b	-1.04407e-40
189	0x00000004	6e-45
190	0x80051cab	-4.69462e-40
191	0x00000000	0.0
192	0x00000000	0.0
193	0x00000000	0.0
194	0x00000000	0.0
195	0x00000000	0.0
196	0x00000000	0.0
197	0x00000000	0.0
198	0x00000000	0.0
199	0x00000000	0.0
200	0x00000000	0.0
201	0x00000000	0.0
202	0x00000000	0.0
203	0x00000000	0.0
204	0x00000000	0.0
205	0x00000000	0.0
206	0x00000000	0.0
207	0x00000000	0.0
208	0x00000000	0.0
209	0x00000000	0.0
210	0x00000000	0.0
211	0x00000000	0.0
212	0x00000000	0.0
213	0x00000000	0.0
214	0x00000000	0.0
215	0x00000000	0.0
216	0x00000000	0.0
217	0x00000004	6e-45
218	0x00000004	6e-45
219	0x00000004	6e-45
220	0x00000004	6e-45
221	0x00000000	0.0
222	0x00000004	6e-45
223	0x00000004	6e-45
224	0x00000004	6e-45
225	0x00000000	0.0
226	0x00000000	0.0
227	0x00000004	6e-45
228	0x80000004	-6e-45
229	0x00000000	0.0
230	0x00000000	0.0
231	0x00000000	0.0
232	0x00000004	6e-45
233	0x00000004	6e-45
234	0x00000000	0.0
235	0x00000000	0.0
236	0x80000004	-6e-45
237	0x00000004	6e-45
238	0x00000004	6e-45
239	0x00000000	0.0
240	0x00000000	0.0
241	0x00000004	6e-45
242	0x00000004	6e-45
243	0x00000004	6e-45
244	0x00000004	6e-45
245	0x00000000	0.0
246	0x80000004	-6e-45
247	0x00000004	6e-45
248	0x00000004	6e-45
249	0x80000004	-6e-45
250	0x00000000	0.0
251	0x00000004	6e-45
252	0x00000004	6e-45
253	0x00000000	0.0
254	0x00000004	6e-45
255	0x00000000	0.0

exp_avg_sq f4 [24, 24]
0	0x00000000	0.0
1	0x00000000	0.0
2	0x00000000	0.0
3	0x00000000	0.0
4	0x00000000	0.0
5	0x00000000	0.0
6	0x00000000	0.0
7	0x00000000	0.0
8	0x00000000	0.0
9	0x00000000	0.0
10	0x00000000	0.0
11	0x00000000	0.0
12	0x00000000	0.0
13	0x00000000	0.0
14	0x00000000	0.0
15	0x00000000	0.0
16	0x00000000	0.0
17	0x00000000	0.0
18	0x00000000	0.0
19	0x00000000	0.0
20	0x00000000	0.0
21	0x00000000	0.0
22	0x00000000	0.0
23	0x00000000	0.0
24	0x00000000	0.0
25	0x510a68c7	3.715396e+10
26	0x5007e35d	9.119299e+09
27	0x4f4ca62d	3.4334426e+09
28	0x50696477	1.5662702e+10
29	0x00000000	0.0
30	0x4e59290a	9.1083635e+08
31	0x50d8aee9	2.9082733e+10
32	0x48c82a69	409939.28
33	0x00000000	0.0
34	0x00000000	0.0
35	0x4e8c3a6c	1.1763195e+09
36	0x4a08e624	2.242953e+06
37	0x00000000	0.0
38	0x00000000	0.0
39	0x00000000	0.0
40	0x4f678454	3.8842092e+09
41	0x445a7a80	873.91406
42	0x00000000	0.0
43	0x00000000	0.0
44	0x502c0454	1.1543859e+10
45	0x48553e56	218361.34
46	0x5046d048	1.3342155e+10
47	0x00000000	0.0
48	0x00000000	0.0
49	0x4b304acb	1.1553483e+07
50	0x46ef3d01	30622.502
51	0x49db7e31	1.7980861e+06
52	0x4ad9d307	7.1376675e+06
53	0x00000000	0.0
54	0x00000000	0.0
55	0x4b088a1b	8.948251e+06
56	0x4824e1a7	168838.61
57	0x00000000	0.0
58	0x00000000	0.0
59	0x4aa9b370	5.56076e+06
60	0x47c74544	102026.53
61	0x00000000	0.0
62	0x00000000	0.0
63	0x00000000	0.0
64	0x45648a6c	3656.6514
65	0x00000000	0.0
66	0x00000000	0.0
67	0x00000000	0.0
68	0x4ad9105f	7.1127515e+06
69	0x48e02ed4	459126.62
70	0x499362a6	1.2073808e+06
71	0x00000000	0.0
72	0x00000000	0.0
73	0x50e4461e	3.0638404e+10
74	0x4fe4a54e	7.6720773e+09
75	0x4f3d97e1	3.1808474e+09
76	0x504eb21e	1.3871118e+10
77	0x00000000	0.0
78	0x4e1aadc3	6.487697e+08
79	0x50c58375	2.6509814e+10
80	0x44d7e56d	1727.1696
81	0x00000000	0.0
82	0x00000000	0.0
83	0x4e5b5417	9.199303e+08
84	0x458fca22	4601.2666
85	0x00000000	0.0
86	0x00000000	0.0
87	0x00000000	0.0
88	0x4f442137	3.290511e+09
89	0x4394b9d1	297.4517
90	0x00000000	0.0
91	0x00000000	0.0
92	0x5022e20c	1.0930893e+10
93	0x473ef598	48885.594
94	0x502786ad	1.1242485e+10
95	0x00000000	0.0
96	0x00000000	0.0
97	0x4f52ade9	3.5346127e+09
98	0x4e81bd8d	1.0883416e+09
99	0x4d7ce7ce	2.6519062e+08
100	0x4e946d07	1.2450866e+09
101	0x00000000	0.0
102	0x4d108fcc	1.5158394e+08
103	0x4f0d2617	2.3680837e+09
104	0x45967c76	4815.5576
105	0x00000000	0.0
106	0x00000000	0.0
107	0x4cb2e7b0	9.379776e+07
108	0x45134066	2356.025
109	0x00000000	0.0
110	0x00000000	0.0
111	0x00000000	0.0
112	0x4de8ba4d	4.8806544e+08
113	0x434a6cbd	202.42476
114	0x00000000	0.0
115	0x00000000	0.0
116	0x4e6822df	9.7364986e+08
117	0x477cdafc	64730.984
118	0x4e94f0a6	1.2493996e+09
119	0x00000000	0.0
120	0x00000000	0.0
121	0x4f9be2ca	5.2306627e+09
122	0x4ed2d5e3	1.7686163e+09
123	0x4e29b5ca	7.118158e+08
124	0x4fbb1a15	6.2780974e+09
125	0x00000000	0.0
126	0x4d92ae96	3.076144e+08
127	0x4ffc6401	8.4688246e+09
128	0x4f75dcc6	4.1248865e+09
129	0x4613e8ec	9466.23
130	0x00000000	0.0
131	0x4fa44ae7	5.5127444e+09
132	0x4f94d80a	4.9943726e+09
133	0x00000000	0.0
134	0x4c1de83d	4.139442e+07
135	0x00000000	0.0
136	0x4e92fa3c	1.2329364e+09
137	0x42c5bf5e	98.873764
138	0x00000000	0.0
139	0x00000000	0.0
140	0x4fe76bd8	7.765209e+09
141	0x4dd295be	4.416286e+08
142	0x4e27d589	7.039473e+08
143	0x00000000	0.0
144	0x00000000	0.0
145	0x4e1d2618	6.5912986e+08
146	0x4cf6ad7b	1.29330136e+08
147	0x4ae36835	7.4516745e+06
148	0x4d018f54	1.3585338e+08
149	0x00000000	0.0
150	0x4b8f32d1	1.8769314e+07
151	0x4d3db1cf	1.9890917e+08
152	0x4bdd93eb	2.9042646e+07
153	0x4752d3de	53971.867
154	0x00000000	0.0
155	0x4c67f561	6.0806532e+07
156	0x4c357b69	4.7574436e+07
157	0x00000000	0.0
158	0x49c6266a	1.6232452e+06
159	0x00000000	0.0
160	0x4c825e2c	6.83503e+07
161	0x3f372eb0	0.71555614
162	0x00000000	0.0
163	0x00000000	0.0
164	0x4b96a13b	1.974335e+07
165	0x49f79b64	2.0283965e+06
166	0x4d284081	1.7642498e+08
167	0x00000000	0.0
168	0x00000000	0.0
169	0x512d76af	4.6563783e+10
170	0x501b9f9b	1.0443714e+10
171	0x4f97368b	5.0738683e+09
172	0x50a6f67f	2.2409378e+10
173	0x00000000	0.0
174	0x4e52b66a	8.837925e+08
175	0x511644e5	4.033756e+10
176	0x4e8c2dd1	1.1759064e+09
177	0x46301b54	11270.832
178	0x00000000	0.0
179	0x4f754a67	4.115294e+09
180	0x4eb4379e	1.5117719e+09
181	0x00000000	0.0
182	0x4b06e6e9	8.840937e+06
183	0x00000000	0.0
184	0x4f87803f	4.546658e+09
185	0x43c47507	392.91428
186	0x00000000	0.0
187	0x00000000	0.0
188	0x5087d841	1.8232773e+10
189	0x4d106637	1.5141362e+08
190	0x5066fc14	1.550112e+10
191	0x00000000	0.0
192	0x00000000	0.0
193	0x00000000	0.0
194	0x00000000	0.0
195	0x00000000	0.0
196	0x00000000	0.0
197	0x00000000	0.0
198	0x00000000	0.0
199	0x00000000	0.0
200	0x00000000	0.0
201	0x00000000	0.0
202	0x00000000	0.0
203	0x00000000	0.0
204	0x00000000	0.0
205	0x00000000	0.0
206	0x00000000	0.0
207	0x00000000	0.0
208	0x00000000	0.0
209	0x00000000	0.0
210	0x00000000	0.0
211	0x00000000	0.0
212	0x00000000	0.0
213	0x00000000	0.0
214	0x00000000	0.0
215	0x00000000	0.0
216	0x00000000	0.0
217	0x4cca47de	1.0605336e+08
218	0x4ba79464	2.1965e+07
219	0x4a100aa6	2.3599775e+06
220	0x4b669309	1.5110921e+07
221	0x00000000	0.0
222	0x4a1bba37	2.5514378e+06
223	0x4bccf24d	2.6862746e+07
224	0x46f697a8	31563.828
225	0x00000000	0.0
226	0x00000000	0.0
227	0x4a0af6ec	2.276795e+06
228	0x4832980d	182880.2
229	0x00000000	0.0
230	0x00000000	0.0
231	0x00000000	0.0
232	0x4b0ccb3c	9.227068e+06
233	0x41c535e0	24.651306
234	0x00000000	0.0
235	0x00000000	0.0
236	0x49628290	927785.0
237	0x45d9bce5	6967.612
238	0x4bee32d3	3.1221158e+07
239	0x00000000	0.0
240	0x00000000	0.0
241	0x4fc10522	6.476678e+09
242	0x4e0c2071	5.877341e+08
243	0x4e14eb22	6.246094e+08
244	0x4f38da36	3.1013084e+09
245	0x00000000	0.0
246	0x4c8457e6	6.938603e+07
247	0x4f48de87	3.3700268e+09
248	0x4ed03d71	1.7468438e+09
249	0x47c6978f	101679.12
250	0x00000000	0.0
251	0x4f487c02	3.3635702e+09
252	0x4f12b91b	2.4616046e+09
253	0x00000000	0.0
254	0x4c0532e1	3.4917252e+07
255	0x00000000	0.0

exp_avg f4 [24]
0	0x00000000	0.0
1	0x00000004	6e-45
2	0x00000004	6e-45
3	0x00000009	1.3e-44
4	0x00000004	6e-45
5	0x00000004	6e-45
6	0x00000004	6e-45
7	0x80000004	-6e-45
8	0x00000000	0.0
9	0x00000004	6e-45
10	0x00000004	6e-45
11	0x00000004	6e-45
12	0x00000004	6e-45
13	0x00000004	6e-45
14	0x00000004	6e-45
15	0x00000004	6e-45
16	0x00000004	6e-45
17	0x00000004	6e-45
18	0x00000004	6e-45
19	0x00000004	6e-45
20	0x00000000	0.0
21	0x00000004	6e-45
22	0x00000004	6e-45
23	0x80000004	-6e-45

exp_avg_sq f4 [24]
0	0x00000000	0.0
1	0x3f9d5776	1.2292316
2	0x382223f6	3.86573e-05
3	0x3f888698	1.0666075
4	0x3d9319b2	0.07182635
5	0x3dc733a1	0.09726644
6	0x3b1c2cae	0.0023830342
7	0x3fc98d07	1.5746163
8	0x00000000	0.0
9	0x3a0f094e	0.00054564036
10	0x3cde755a	0.027155567
11	0x3d9ca984	0.0764952
12	0x3fe4f6e1	1.7887841
13	0x3c5eb36f	0.013592585
14	0x31389aed	2.686359e-09
15	0x380c4fe6	3.3453012e-05
16	0x3c2aae4f	0.010417535
17	0x3ddbbd1b	0.107294284
18	0x3b85f4c5	0.0040880167
19	0x3cb5fa27	0.022214008
20	0x00000000	0.0
21	0x3aea19e3	0.0017860498
22	0x39fa3cd6	0.00047729042
23	0x3b069d0a	0.002054038

exp_avg f4 [5, 24]
0	0x00000000	0.0
1	0x00000004	6e-45
2	0x00000000	0.0
3	0x00000004	6e-45
4	0x80000004	-6e-45
5	0x80000004	-6e-45
6	0x00000004	6e-45
7	0x00000004	6e-45
8	0x00000000	0.0
9	0x80000004	-6e-45
10	0x00000004	6e-45
11	0x00000004	6e-45
12	0x80000004	-6e-45
13	0x80000004	-6e-45
14	0x00000004	6e-45
15	0x00000000	0.0
16	0x80000004	-6e-45
17	0x00000004	6e-45
18	0x00000000	0.0
19	0x80000004	-6e-45
20	0x00000000	0.0
21	0x00000004	6e-45
22	0x80000004	-6e-45
23	0x00000004	6e-45
24	0x00000000	0.0
25	0x00000004	6e-45
26	0x00000004	6e-45
27	0x000e87d4	1.334423e-39
28	0x00000004	6e-45
29	0x80000004	-6e-45
30	0x80000004	-6e-45
31	0x000ebf27	1.35427e-39
32	0x00000000	0.0
33	0x00000004	6e-45
34	0x00000004	6e-45
35	0x00000004	6e-45
36	0x000d86ae	1.242175e-39
37	0x80000004	-6e-45
38	0x00000004	6e-45
39	0x00000000	0.0
40	0x00000004	6e-45
41	0x00000004	6e-45
42	0x00000004	6e-45
43	0x80000004	-6e-45
44	0x00000000	0.0
45	0x00000004	6e-45
46	0x80000004	-6e-45
47	0x80000004	-6e-45
48	0x00000000	0.0
49	0x80000004	-6e-45
50	0x80000004	-6e-45
51	0x00000004	6e-45
52	0x00000004	6e-45
53	0x80000004	-6e-45
54	0x00000004	6e-45
55	0x0000001c	3.9e-44
56	0x00000000	0.0
57	0x80000004	-6e-45
58	0x80000004	-6e-45
59	0x00000004	6e-45
60	0x00000037	7.7e-44
61	0x00000004	6e-45
62	0x00000000	0.0
63	0x80000004	-6e-45
64	0x00000004	6e-45
65	0x80000004	-6e-45
66	0x00000000	0.0
67	0x80000004	-6e-45
68	0x00000000	0.0
69	0x80000004	-6e-45
70	0x00000004	6e-45
71	0x00000004	6e-45
72	0x00000000	0.0
73	0x80000004	-6e-45
74	0x00000004	6e-45
75	0x00000004	6e-45
76	0x80000004	-6e-45
77	0x00000004	6e-45
78	0x80000004	-6e-45
79	0x0000000b	1.5e-44
80	0x00000000	0.0
81	0x80000004	-6e-45
82	0x80000004	-6e-45
83	0x80000004	-6e-45
84	0x0000000f	2.1e-44
85	0x00000004	6e-45
86	0x00000000	0.0
87	0x00000000	0.0
88	0x80000004	-6e-45
89	0x80000004	-6e-45
90	0x00000000	0.0
91	0x00000004	6e-45
92	0x00000000	0.0
93	0x80000004	-6e-45
94	0x80000004	-6e-45
95	0x00000004	6e-45
96	0x00000000	0.0
97	0x80000004	-6e-45
98	0x00000000	0.0
99	0x80000004	-6e-45
100	0x80000004	-6e-45
101	0x80000004	-6e-45
102	0x80000004	-6e-45
103	0x00000004	6e-45
104	0x00000000	0.0
105	0x80000004	-6e-45
106	0x80000004	-6e-45
107	0x00000004	6e-45
108	0x00000004	6e-45
109	0x80000004	-6e-45
110	0x00000000	0.0
111	0x00000000	0.0
112	0x00000004	6e-45
113	0x80000004	-6e-45
114	0x00000000	0.0
115	0x00000004	6e-45
116	0x00000000	0.0
117	0x80000004	-6e-45
118	0x00000000	0.0
119	0x00000004	6e-45

exp_avg_sq f4 [5, 24]
0	0x00000000	0.0
1	0x4f4658ec	3.3277164e+09
2	0x00000000	0.0
3	0x4fb28455	5.990034e+09
4	0x4f5d13cc	3.7090621e+09
5	0x4f9b683b	5.2145987e+09
6	0x4c3404ac	4.7190704e+07
7	0x508de86f	1.9046562e+10
8	0x00000000	0.0
9	0x4e26000d	6.962553e+08
10	0x4e9ca789	1.3141126e+09
11	0x4f02a7d7	2.1920376e+09
12	0x502f450a	1.1762149e+10
13	0x4c38147c	4.825547e+07
14	0x37c79dab	2.3796068e-05
15	0x00000000	0.0
16	0x4dc2a4b7	4.0819683e+08
17	0x4f8412f2	4.431668e+09
18	0x00000000	0.0
19	0x4e52d63a	8.843137e+08
20	0x00000000	0.0
21	0x4bd9c3c6	2.854286e+07
22	0x4d00d8dc	1.3510598e+08
23	0x4f03fb50	2.2142853e+09
24	0x00000000	0.0
25	0x4ebda921	1.5909889e+09
26	0x45aeaa16	5589.2607
27	0x4f38048f	3.0873065e+09
28	0x4eb0e589	1.4839164e+09
29	0x4f9eecee	5.332655e+09
30	0x4d5e4855	2.3308014e+08
31	0x4fea4a4e	7.8614764e+09
32	0x00000000	0.0
33	0x4d4610f9	2.0768757e+08
34	0x4f0f07e5	2.3996593e+09
35	0x4f2426af	2.7539986e+09
36	0x4fabef53	5.7691766e+09
37	0x4bc3da85	2.5670922e+07
38	0x3ea1d1c7	0.3160536
39	0x00000000	0.0
40	0x4eac0df5	1.4432979e+09
41	0x4f059dab	2.2417027e+09
42	0x490a6ebc	567019.75
43	0x4e30f152	7.421513e+08
44	0x00000000	0.0
45	0x4bc80533	2.6217062e+07
46	0x4e394e87	7.7723283e+08
47	0x4f60bd6d	3.7705106e+09
48	0x00000000	0.0
49	0x4e24e34b	6.915898e+08
50	0x45523b22	3363.6958
51	0x4eff6637	2.1424444e+09
52	0x4edfd815	1.8777402e+09
53	0x4ff57c1a	8.237102e+09
54	0x4a0ea124	2.336841e+06
55	0x4fd00fb6	6.981381e+09
56	0x00000000	0.0
57	0x4d8d6768	2.9654554e+08
58	0x4f956f6b	5.014214e+09
59	0x4f339ba8	3.0133228e+09
60	0x5004c706	8.910543e+09
61	0x4bdae878	2.869272e+07
62	0x00000000	0.0
63	0x49008074	526343.25
64	0x4ed3f498	1.7780111e+09
65	0x4f6f96ec	4.0196454e+09
66	0x00000000	0.0
67	0x4d979c99	3.179528e+08
68	0x00000000	0.0
69	0x4a94d1ef	4.8765355e+06
70	0x4c763385	6.454018e+07
71	0x4fb95c0b	6.219634e+09
72	0x00000000	0.0
73	0x4dcc001b	4.2781987e+08
74	0x46102f12	9227.768
75	0x4ee0c2a1	1.8854258e+09
76	0x4e97dcee	1.2739192e+09
77	0x5029be09	1.1391215e+10
78	0x4a9d1eea	5.148533e+06
79	0x4f9a6a51	5.1813176e+09
80	0x00000000	0.0
81	0x4d5fccf0	2.3467187e+08
82	0x500cda41	9.452455e+09
83	0x4ef119e9	2.0225036e+09
84	0x5067d3bd	1.5557654e+10
85	0x4c1963e8	4.0210336e+07
86	0x00000000	0.0
87	0x00000000	0.0
88	0x5059f184	1.4625935e+10
89	0x4f53909e	3.5494702e+09
90	0x00000000	0.0
91	0x4d061c5a	1.4062531e+08
92	0x00000000	0.0
93	0x4b7ffaae	1.6775854e+07
94	0x4b25b322	1.0859298e+07
95	0x510ee711	3.8360125e+10
96	0x00000000	0.0
97	0x4e9e9848	1.33039e+09
98	0x00000000	0.0
99	0x4f12b1b1	2.4611187e+09
100	0x4ea207ee	1.3592143e+09
101	0x4dd4c1e2	4.461845e+08
102	0x491b24bc	635467.75
103	0x4fda7460	7.3301197e+09
104	0x00000000	0.0
105	0x4d8d344f	2.9612694e+08
106	0x4cb83eb9	9.659745e+07
107	0x4d32a020	1.873024e+08
108	0x4f8dbc48	4.7558533e+09
109	0x4bd5eabf	2.8038526e+07
110	0x00000000	0.0
111	0x00000000	0.0
112	0x490cecd3	577229.2
113	0x4ddcb25b	4.6283453e+08
114	0x00000000	0.0
115	0x4cd705be	1.1273368e+08
116	0x00000000	0.0
117	0x4b69c494	1.5320212e+07
118	0x00000000	0.0
119	0x4d005998	1.345847e+08

exp_avg f4 [5]
0	0xb8c83cd3	-9.5480726e-05
1	0xbc382584	-0.011239413
2	0xbda1ead3	-0.07906117
3	0xbd08629d	-0.03329717
4	0xc01ee774	-2.4828768

exp_avg_sq f4 [5]
0	0x432b2ee4	171.18317
1	0x42094a24	34.322403
2	0x428482f3	66.25576
3	0x421da4d8	39.41098
4	0x428c4b6c	70.14731
