data/data1/house_net.pt (torch, 6300 bytes, 6 tensors)

fc1.weight f4 [24, 9]
000000 6e a8 82 be 98 c3 86 be be 4a 77 3e 13 2b 4d be
       -0.25519127 -0.263211 0.24149606 -0.20035963
000010 5e 7c 55 be 90 2c 1a 3e 3b 25 56 be eb 26 6e bd
       -0.20848224 0.15056062 -0.2091264 -0.058142584
000020 96 be 1d bd e0 b0 0a 3e 38 68 d9 3d 3d 7b fa be
       -0.038511835 0.13544035 0.10615581 -0.48922148
000030 17 1e 35 3e cf 14 cc 3d 2b 4f d8 be 86 2a f8 3d
       0.1768726 0.099649064 -0.422479 0.12117486
000040 f3 83 b7 bd 1a 28 09 be 0a c6 5e bd a2 38 8c 3d
       -0.08960714 -0.13394204 -0.054388084 0.06846739
000050 d5 52 74 3e 44 d3 c8 bd ef f4 93 bd 42 fe 0f 3e
       0.23859723 -0.09805921 -0.07224452 0.14061835
000060 84 b6 3e 3e 38 95 8c bc 43 36 1b 3e 09 df d9 3d
       0.18624312 -0.017160997 0.15157418 0.10638244
000070 00 2e 24 3d 1e b6 32 3e 90 c0 63 be b1 87 16 3e
       0.04008293 0.17452285 -0.22241426 0.147002
000080 c9 e9 83 be c5 b6 69 3d d8 c1 c4 3e 0a ec 8f bd
       -0.257643 0.05705907 0.3842914 -0.07027443
000090 93 cc 24 3e 48 f7 fa bc 9f 96 1a 3e a3 c1 86 bd
       0.16093664 -0.030635491 0.1509652 -0.06579902
0000a0 76 ea fa 3d f4 ec 0d 3e 80 ab 85 be f3 7b 66 be
       0.12251751 0.13859922 -0.26107407 -0.2250822
0000b0 c4 81 f9 3d 36 50 c6 bd 8e ad 16 be 63 31 4a 3e
       0.12182954 -0.09683268 -0.14714643 0.19745402
0000c0 ae 98 88 be e6 03 81 3e d6 c7 22 3d 00 47 06 bd
       -0.26678985 0.25198287 0.03974136 -0.032782555
0000d0 13 cb 67 be 73 51 4a be d0 8e 57 bd be 97 77 3c
       -0.2263606 -0.19757633 -0.05262643 0.015111862
0000e0 06 dd c2 bd 00 d9 2a be 78 b5 74 3d e8 55 97 3e
       -0.09514813 -0.16684341 0.059743375 0.2955773
0000f0 db c1 9d 3e 7a ee c2 be 24 ee 1a 3e fc 19 3e 3e
       0.30811962 -0.38072568 0.15129906 0.185646
000100 45 9d 65 bc f3 a6 51 3e ec d6 97 3d dd c9 11 be
       -0.014014547 0.20473842 0.0741404 -0.14237161
000110 7f 92 c8 3b 31 44 d0 bd 0e cf 6d bb c0 e9 64 3e
       0.0061209793 -0.101692565 -0.0036286744 0.22354794
000120 cb 49 1f 3e 83 e7 3c be 71 ea 8a be e2 cd a2 be
       0.15555494 -0.1844769 -0.2713199 -0.317977
000130 43 00 7c be 78 e7 16 3e 91 30 33 3c 8e 2b 81 3e
       -0.24609475 0.14736736 0.010936872 0.25228542
000140 e7 7f 86 be 9f d5 d4 3b 8d 37 88 be 6f 3b 99 3e
       -0.26269457 0.006495192 -0.26604882 0.29928157
000150 7a 0e 1a 3e 79 c8 3d be 6d aa 83 3e 18 34 85 be
       0.15044585 -0.18533505 0.25715962 -0.26016307
000160 ff 68 21 3e 64 33 19 be 82 64 99 be d4 72 8d be
       0.15762709 -0.1496101 -0.29959494 -0.2762667
000170 8e 35 1f be 9b e3 30 be 33 c6 7a be b6 19 61 3d
       -0.15547773 -0.17274325 -0.2448967 0.05495616
000180 a3 52 22 be db e5 5a be 96 1f c9 bd 02 43 4f 3e
       -0.15851836 -0.21376745 -0.09820478 0.20240405
000190 cd e8 97 bd 21 59 11 3d b6 ee 1c 3e d6 d5 a8 3d
       -0.0741745 0.03548539 0.15325436 0.08243911
0001a0 84 7c 98 be 04 af 5f 3e 57 58 92 3d 48 f5 3a be
       -0.29782498 0.21844107 0.07145756 -0.1825763
0001b0 8c c6 10 3e 76 d8 a9 be 32 e2 2d be 36 64 82 3d
       0.1413824 -0.3317296 -0.16980818 0.0636677
0001c0 12 d8 6e 3b 84 49 6f be 50 e7 b5 3d 35 71 19 3e
       0.0036444706 -0.23367888 0.0888201 0.14984591
0001d0 c8 be cf be 40 02 58 bd 20 ea 4b be ce e6 78 3e
       -0.40575242 -0.05273652 -0.1991353 0.24306795
0001e0 eb cc 8c 3c 30 a2 a3 be fb d5 65 3e 96 b9 78 be
       0.017187556 -0.31959677 0.22444908 -0.24289545
0001f0 ae 19 65 be 52 4f 92 be 55 d5 22 bc cc 9c 57 be
       -0.22373077 -0.28576142 -0.009938558 -0.21055907
000200 f4 e4 9b bd 22 9a ab be 90 46 dd 3d 3b 1a 74 be
       -0.07612029 -0.33516032 0.10804474 -0.23838131
000210 fc 3a 36 3e 02 ac b7 be f3 72 9d bd 28 35 41 be
       0.17795938 -0.3587342 -0.076879404 -0.18867934
000220 4a 85 a8 be 9b 16 85 be 93 47 89 be 80 02 45 3e
       -0.3291419 -0.2599381 -0.2681242 0.19239235
000230 00 16 42 bd a6 5b c8 bd e7 ed 8e be 02 65 a5 3e
       -0.047384262 -0.097831056 -0.2791588 0.32303625
000240 66 cb 3d bd 2b 17 fb 3c d5 3d aa be 70 10 98 be
       -0.046336554 0.030650696 -0.332503 -0.2970004
000250 c2 d5 a1 3d bf 18 d1 bc e2 1d bd 3e d5 16 30 be
       0.07902099 -0.025524495 0.3693686 -0.1719621
000260 e1 3e 3a 3e ac fd fd bd 81 37 7b be dc 13 b5 3d
       0.18188049 -0.124019 -0.24532892 0.088416785
000270 9c 29 87 3e d4 80 93 3e 77 c9 00 be 69 1a 68 3e
       0.26398933 0.28809226 -0.12576853 0.22666325
000280 b4 0c 7c 3e 5b 35 2b bd c8 86 67 be c8 5e 7a be
       0.24614221 -0.04179893 -0.22610009 -0.24450219
000290 ce 55 83 be 00 dd 75 3c 6e a5 a4 be 17 de 9f be
       -0.256514 0.015006304 -0.32157463 -0.3122413
0002a0 1e a2 92 3e 7a 85 93 be 8b 44 6f be 80 17 41 3c
       0.2863931 -0.28812772 -0.23365991 0.011785388
0002b0 0e 1a a0 be 00 fb 34 3e 6b f8 a9 bd fb 73 c6 3d
       -0.31269878 0.17673874 -0.08299335 0.0969009
0002c0 2b 5b 93 3c 98 73 a9 3e 43 fe 93 be 08 f6 78 be
       0.017987808 0.33096004 -0.28904924 -0.24312603
0002d0 a6 cd 52 3e 17 6c d8 bd d3 b2 c6 bb d6 e3 89 be
       0.20586261 -0.105674915 -0.006063798 -0.26931638
0002e0 76 fa ef 3d fb c4 9b 3e 3b 57 5c 3e a0 ee 19 3c
       0.117176935 0.30423722 0.21517651 0.009395272
0002f0 fb 88 9f 3e c1 c4 c1 3d c8 d3 82 be 25 d6 3c 3d
       0.31159195 0.09461356 -0.255522 0.04610266
000300 14 b4 85 3e 8a d5 6b be 8b a7 ad be 46 5f 8b be
       0.2611395 -0.23030677 -0.33916888 -0.27221125
000310 19 c7 82 3c 19 3c d2 3d 6b d3 cf 3a 68 ee e7 3d
       0.015964078 0.10265369 0.0015855854 0.11324769
000320 41 62 9f bd bf 98 01 bc 97 08 db 3d 17 e5 25 bd
       -0.07782412 -0.007909953 0.10694998 -0.04050168
000330 27 5e 1e bf 35 4f 6f be f2 3c db bd 2e 40 59 be
       -0.61862415 -0.23370059 -0.10704984 -0.21215889
000340 f0 83 0b be de 87 6a be 78 4c 6c be ab 95 18 bd
       -0.13624549 -0.22903392 -0.23076046 -0.03725211
000350 e7 50 93 3e bb fc 3b be 9f 57 a0 be 96 e4 29 3e
       0.2877266 -0.18358128 -0.3131685 0.16591105

fc1.bias f4 [24]
000000 d6 26 5e 3e b2 76 79 3b f1 4a 92 bd 33 cf 75 3e
       0.21694502 0.0038065133 -0.071432 0.24004821
000010 7a 13 82 3d 83 ea a0 3e 33 65 39 be 22 b8 e9 bd
       0.06351371 0.31428918 -0.1810501 -0.11412074
000020 fd 43 68 bc 39 2c 20 3d 4b bb f2 3d d0 b9 cb 3e
       -0.014176366 0.039104674 0.118521295 0.397902
000030 23 07 77 3c 04 da 8b 3e 3f e2 5f 3d a0 73 d7 bd
       0.015077385 0.2731477 0.054659124 -0.105201006
000040 07 50 58 bd ca 80 00 be 50 6a e9 3d 00 07 22 3d
       -0.052810695 -0.12549129 0.113972306 0.039557457
000050 c7 bc 84 be bf 3d 8d be b9 5e 5a bd a8 d8 2a 3e
       -0.25925276 -0.2758617 -0.05331299 0.1668421

fc2.weight f4 [24, 24]
000000 80 42 af 3d 7c c6 37 bd 6e 81 2d be 52 2b 1d 3b
       0.08557606 -0.044867024 -0.16943905 0.002398212
000010 09 7b 05 be c6 63 38 3e f6 e1 fc bd 6f ef 1f be
       -0.13035215 0.1800681 -0.12347786 -0.1561868
000020 37 58 42 be 6e 6d c2 3c ae f4 33 bc 98 16 e9 3b
       -0.18978964 0.02373382 -0.010983629 0.007113289
000030 36 b3 c3 bb 2c 5d d5 bd b8 83 46 3e fb 4a df 3d
       -0.0059722913 -0.10418162 0.19386184 0.10902973
000040 a8 53 3a be 52 d0 05 3d b2 3d 3e 3e 1e ae 17 3e
       -0.18195975 0.032669373 0.18578222 0.14812514
000050 0f 44 9c bd aa 46 84 bd 63 8a 40 3e dd 58 5d bd
       -0.07630169 -0.064587906 0.1880279 -0.054039825
000060 46 59 ca bd e3 71 1b 3c f4 27 fd bd fd df 11 3c
       -0.09880309 0.009487602 -0.12361136 0.008903501
000070 87 e8 cf bc 36 86 ee bc 0e 47 30 3d cc ef a7 3d
       -0.025379432 -0.029116731 0.043036513 0.082000345
000080 60 14 4d bd e6 a9 f1 3d cc fa 19 bd 73 03 52 be
       -0.05006826 0.11799984 -0.037592694 -0.20509128
000090 0b 25 0f bd 75 f9 9e bc aa 52 39 be f4 f2 98 3d
       -0.034947436 -0.01940606 -0.1809794 0.07468215
0000a0 ea d5 a9 bc 06 48 98 bd 49 ea da bc d9 84 f6 3d
       -0.020731885 -0.074356124 -0.026723044 0.120370574
0000b0 a2 76 81 bd 18 85 ab 3c f7 5d 43 3d 13 ec 13 3e
       -0.063214555 0.020937487 0.047697034 0.14445524
0000c0 a3 e1 23 bb 6c 67 62 be d5 40 84 be e2 c2 3e be
       -0.0025006316 -0.22109765 -0.25830713 -0.1862903
0000d0 9d b3 09 3e 0a 12 ae bd 0b 5d 72 bd e5 f0 86 bd
       0.13447423 -0.084995344 -0.059170764 -0.06588916
0000e0 ab 0f 84 be 86 30 b4 3d 69 cc b5 bc 8e 21 68 3d
       -0.25793204 0.087983176 -0.022192197 0.056672625
0000f0 23 9a 24 bd 99 7e a8 3d 6e fa e6 bd 04 0d 8c 3d
       -0.04018606 0.082272716 -0.112782344 0.0683842
000100 bc 7a 2f be d8 d7 cb 3d 07 82 e9 bd 69 5f 2d be
       -0.17136663 0.09953278 -0.11401754 -0.16930927
000110 b2 34 12 3e a6 36 34 bd ad 1f 33 bc f5 22 9f bd
       0.14277914 -0.04399743 -0.010932845 -0.077703394
000120 c0 1a 7c bc fd a3 fc bc db 7a 10 3e ab 55 86 bd
       -0.015387237 -0.030839914 0.14109366 -0.065593086
000130 89 e8 00 be a8 dd 35 be b0 3a 30 3d 54 47 20 3e
       -0.12588705 -0.17760336 0.04302472 0.1565221
000140 f9 97 8d 3d c2 98 e6 bd 97 de 02 bd 7d 99 5c bd
       0.06913752 -0.11259605 -0.03195056 -0.053857315
000150 ea 1e a8 bd 9d 32 05 3e ef 06 ab 3d 35 4f 07 3e
       -0.082090214 0.13007589 0.08350932 0.13213809
000160 b3 24 07 be c5 8c 4f 3d 8b a1 d5 bd 25 55 92 bd
       -0.13197593 0.050671358 -0.104312025 -0.07145146
000170 1f 3b e7 bd 25 de a8 3b 39 ed 91 3d 5f 1e 43 be
       -0.11290573 0.005153435 0.07125325 -0.19054554
000180 eb f2 7c bc 25 3f 5f 3c a5 17 c8 3d f4 a6 5e 3d
       -0.0154387755 0.013625895 0.09770135 0.054358438
000190 25 46 9b 3d ed cf bb bd 9d 16 ea 3d a5 0c 28 be
       0.075817384 -0.09170518 0.114300944 -0.16411074
0001a0 33 6b 8f 3d fa fe 37 3d 12 25 01 be e6 63 ff bd
       0.070028685 0.0449209 -0.12611797 -0.12470226
0001b0 5a 20 9e be 7b 12 0f 3e 57 2c 82 3d 74 91 df bd
       -0.30884057 0.13971893 0.063561134 -0.10916415
0001c0 78 6e d0 bd 11 60 ca 3d e6 4e c3 3d e0 a5 19 3e
       -0.1017732 0.098816045 0.09536533 0.15004683
0001d0 bd b7 6b 3d 0c 95 a1 3c 15 67 82 3c c7 85 22 3e
       0.057548273 0.019724391 0.015918294 0.15871345
0001e0 e2 b7 23 be 39 68 a1 bd 78 56 0c 3c ac f1 f2 bd
       -0.15988114 -0.07881207 0.008565538 -0.118625015
0001f0 58 7b 82 3d 22 63 3b 3e e5 29 b0 3d 2a 6a 53 be
       0.06371182 0.18299535 0.08601741 -0.20645967
000200 9e 70 ad bc 3a 73 ec ba 99 2e f9 bd d5 99 a4 bb
       -0.021171864 -0.0018039711 -0.12167091 -0.005023221
000210 3a ad cf 3d b9 07 c7 3d 30 fe 5e 3c 4f 01 21 3d
       0.10140462 0.0971827 0.013610408 0.03930789
000220 10 cf e0 3d cf 64 6f be a6 4a 2e be 32 94 02 be
       0.10976994 -0.23378299 -0.17020664 -0.12751845
000230 62 3c cb 3d d7 3f 11 bd f0 d6 b5 3d 92 58 15 3e
       0.099236265 -0.035461273 0.08878887 0.14584568
000240 f4 4e 3b be a7 b0 e4 bd 57 3e cf 3d e3 1d 25 be
       -0.18291837 -0.11166506 0.10119312 -0.16124682
000250 a5 19 80 bd 80 f1 c6 bd 08 7a 9f 3c 57 95 10 3e
       -0.06254891 -0.09714031 0.019467369 0.14119469
000260 10 8c 1a 3e 65 25 0f 3e f6 b5 e0 3d 09 a2 62 3d
       0.15092492 0.13979109 0.10972206 0.05533031
000270 55 18 37 3c b2 50 01 be 63 60 79 3d 3b 54 ba 3d
       0.011175235 -0.12628439 0.060882937 0.09098097
000280 ed b7 2b be f1 12 97 3d 15 71 20 3e 4a bc a0 3d
       -0.16769381 0.0737666 0.15668137 0.07848413
000290 36 b4 5b be 42 3d 86 3d 7e 7f 94 3d e3 50 48 be
       -0.21455464 0.06554653 0.0725088 -0.19562106
0002a0 41 f7 f8 3d 09 c6 79 3d d9 5c 0d 3e 07 4a 05 be
       0.12156535 0.060979877 0.1380495 -0.1301652
0002b0 dc f9 4c be 1e e4 2f 3e 6a 5a 39 be d4 ef 94 3d
       -0.20017189 0.17176864 -0.18100896 0.07272306
0002c0 90 c6 b7 3c f2 c6 01 be ca ee 18 be 90 24 af 3c
       0.02243355 -0.12673548 -0.14934841 0.021379739
0002d0 d1 1c 71 bb 05 f4 c3 bc 42 d7 13 be f2 67 01 bd
       -0.0036790858 -0.023920069 -0.14437583 -0.03159327
0002e0 82 0f 82 3d e2 78 07 3e ff ae 32 bb 4c 23 33 3e
       0.06350614 0.13229707 -0.002726495 0.17493933
0002f0 a6 42 49 bd 3a a5 f0 bd b1 ca 3e 3d 86 1a 19 3e
       -0.049135827 -0.117502645 0.04658002 0.14951524
000300 59 34 3d 3e 8b ad 9b bd 37 0e cc 3d f3 85 03 3e
       0.18477 -0.0760146 0.09963649 0.12844066
000310 b8 1e b7 bd a3 52 ab bd 65 ac 20 3e 27 10 12 be
       -0.08941406 -0.08365371 0.15690763 -0.14263974
000320 3a 68 d4 bb fd 35 39 be 1b cb 16 be fd b0 16 3e
       -0.0064821513 -0.18087001 -0.14725916 0.14715953
000330 04 dc a6 bd ac ea 24 be 87 0c 76 bc 31 9c bc 3d
       -0.081474334 -0.16105145 -0.015017635 0.09209479
000340 56 e3 67 bd fb 97 60 3d 99 9c 23 be 1a f7 bc 3d
       -0.05661329 0.05483244 -0.15977706 0.092268184
000350 8e 1b 89 bd e6 cb 88 bc 4c 26 bc 3d e5 88 39 be
       -0.06694709 -0.016698789 0.09186992 -0.18118627
000360 69 cc d9 3d b1 97 ae 3d b7 24 1f 3e 67 b8 a3 be
       0.10634691 0.085250266 0.1554135 -0.31976625
000370 3f d4 69 be 04 6a 64 3c d6 ba 95 bd 10 33 e3 bd
       -0.22834872 0.013941292 -0.07311027 -0.11093724
000380 d4 e1 e2 bc ba 55 78 3d a3 b5 1e 3d c4 64 a0 3d
       -0.027695574 0.06062863 0.03874744 0.078317195
000390 fd 17 e7 bd d1 75 b7 bd 2a ff 4e 3d eb d0 3f be
       -0.11283872 -0.089580186 0.050536312 -0.1873204
0003a0 34 fc 0a be 1c 54 2c be f1 53 82 bc 9e 3f cb 3d
       -0.1357277 -0.1682896 -0.015909167 0.099242434
0003b0 b5 82 18 bd 03 3b 20 3e fa 1a 02 3e 15 39 9e 3d
       -0.037234027 0.15647511 0.12705603 0.07725731
0003c0 09 92 6a 3d 56 0a 55 3d 28 cf 06 bc 97 f0 53 3d
       0.057268176 0.05201181 -0.008228101 0.051743116
0003d0 63 ae 4c be 23 a3 8c 3d f1 f8 df 3d 2d c5 a1 bd
       -0.19988398 0.06867053 0.10936154 -0.078989364
0003e0 28 99 2a be 40 0b 0f be a1 8a 88 bb 32 ab ea 3d
       -0.16659987 -0.13969135 -0.0041669165 0.11458434
0003f0 75 7a 27 3c 09 2b 2f 3e 00 16 b5 3c df 12 f6 bd
       0.010222067 0.1710626 0.022105217 -0.12015318

fc2.bias f4 [24]
000000 ff aa 07 3e ab 3f 7b bd 09 51 c1 bc 71 20 9e 3e
       0.13248824 -0.061340015 -0.02359821 0.30884126
000010 c4 e8 9d 3e de 29 12 3d 81 b4 59 be ae 71 1f 3d
       0.3084165 0.03568446 -0.21260263 0.038926773
000020 81 d1 1c be 98 0e 1f 3d a3 6c aa 3d 51 ed 0e 3e
       -0.15314294 0.038832277 0.08321502 0.13957717
000030 b4 5a 89 be 92 3d 99 3e bf 9e de bd e0 80 17 be
       -0.26827013 0.29929787 -0.10870122 -0.14795256
000040 01 b8 a3 3b cf 07 c7 be ae c5 1a be 41 36 e6 3d
       0.0049963 -0.38873145 -0.15114471 0.11240817
000050 24 f7 b8 bd 36 f9 d8 bd ae 71 d0 bd a5 7a c3 be
       -0.09031513 -0.10594408 -0.10177933 -0.38179508

fc3.weight f4 [5, 24]
000000 85 5d 90 3d a6 e9 34 3d a6 a3 ba bd b8 e9 a2 bd
       0.070490874 0.044168137 -0.09113245 -0.079547346
000010 a1 47 b4 3c 19 ac d5 3c ce 48 a4 3d 47 4b 96 3d
       0.022006812 0.02608304 0.08021699 0.07338577
000020 5f 7e be 3d 38 26 96 3c 1b 95 15 3d 77 c7 22 3d
       0.09301447 0.018328771 0.03651915 0.039741006
000030 2f 71 b3 bd e3 67 d3 bb c1 ce 83 3d 0b 5c 98 ba
       -0.087618224 -0.0064515932 0.064359196 -0.0011624111
000040 08 0d 0a 3c 6e 27 64 bd 0e 6a cd bc 7a f6 b3 bc
       0.008425958 -0.055701666 -0.025074985 -0.021968115
000050 a4 94 36 be c8 ff 16 be aa 85 9d 3d f5 2c 4a bd
       -0.1783014 -0.1474601 0.0769151 -0.04935928
000060 9a e8 23 3e 04 26 47 3c 5c 62 17 3e 82 85 99 3c
       0.16006699 0.01215506 0.14783615 0.01874042
000070 4c be c9 3c 84 70 13 3d 22 33 95 3d 2a e0 02 bc
       0.024626873 0.035995975 0.072851434 -0.007988015
000080 dc 98 dc 3d 00 3b e3 3c ee 7f 40 3d dc c9 14 3e
       0.10771343 0.027738094 0.046997003 0.14530128
000090 60 f0 51 3b be 6d 73 3b bb f1 3e 3e c7 70 8e 3d
       0.0032034144 0.003714427 0.186469 0.06955104
0000a0 7b e0 cd bd 20 94 ff bd da 27 27 3e d3 a3 eb bd
       -0.10052582 -0.124794245 0.16323796 -0.11505856
0000b0 74 06 f2 3d 37 73 20 bc 2e 3c 07 be e1 05 2b bd
       0.11817637 -0.009793094 -0.1320655 -0.041753653
0000c0 0d 3a 1a bd 58 69 09 bd 5b b5 04 bd 83 cb 9c 3c
       -0.037653018 -0.03354773 -0.032399517 0.01914001
0000d0 c5 4c dd 3c 45 b6 72 3d cd 5d ec bb 28 c1 bb bc
       0.027014146 0.059255857 -0.0072133304 -0.022919253
0000e0 f3 3c e6 bc d4 2b 9d 3c 1a 32 bd bd af 96 b3 3d
       -0.028105235 0.019185938 -0.09238072 0.08768975
0000f0 20 8a 8a 3c a4 57 90 3d 8e 66 fd 3c 50 11 6a bc
       0.016911566 0.07047966 0.030932691 -0.014286354
000100 85 6d 9b 3c 4d dc aa bd 99 83 a8 bc 04 52 c8 3d
       0.018973121 -0.083428 -0.020570563 0.09781268
000110 d6 1f 15 be 59 1d c0 bd de 03 08 3d 40 8a 8c bd
       -0.14562926 -0.093805976 0.033206813 -0.068623066
000120 dc 50 02 3e ec 00 39 bc a0 42 0d 3e bd 5a 3d 3b
       0.12726158 -0.011291724 0.13794947 0.0028893196
000130 65 74 85 3b fe 90 b7 3d 3a 28 2b be a5 18 8d 3c
       0.004072713 0.08963202 -0.16714564 0.017223665
000140 bf c0 ad 3d 8c a5 51 bc 6a 03 8e 3c 7b 40 49 3d
       0.08484029 -0.012795817 0.017335612 0.04913376
000150 92 e2 15 bc 47 0d 48 3d da d1 0d 3d 2f 69 34 3d
       -0.009148257 0.048840787 0.03462396 0.044045623
000160 a5 1d 12 bd 7c 0e ed bd 66 c1 79 3c 55 1a e0 3d
       -0.035672802 -0.11575028 0.015243864 0.109425224
000170 7b 01 00 3e 50 aa 2b bd 90 6f 8c bc 52 c5 22 bd
       0.12500565 -0.04191047 -0.01714304 -0.03973896
000180 84 07 46 3e 32 7b 44 3c 5d fc 8c bd 27 95 2a bd
       0.19338804 0.011992263 -0.06884072 -0.04164615
000190 e6 6d 2e 3c b6 10 38 3d d7 1d 3c be ec 3f 51 3d
       0.010646319 0.04493781 -0.18370758 0.05108635
0001a0 0f 88 0c be 76 40 d1 3b 15 d1 02 be 06 b7 3e 3d
       -0.13723777 0.006385858 -0.12775071 0.046561264
0001b0 a9 0a 22 bd 73 2f 7b 3c 47 69 22 3e d9 1c 15 b8
       -0.039560948 0.015331137 0.15860473 -3.5551235e-05
0001c0 57 9b a2 3d e5 cc 90 bd a6 f3 9b bd e2 22 e8 bd
       0.07939785 -0.070703305 -0.076148316 -0.11334778
0001d0 a6 cf 25 3e 7e 23 41 bc e0 7d d0 bc e4 6e 8e bd
       0.16192493 -0.011788247 -0.025450647 -0.069547445

fc3.bias f4 [5]
000000 16 7a 26 3e bf 3a 27 3e 4d de 1f 3e 28 f5 28 3e
       0.1625751 0.16331004 0.15612145 0.1649977
000010 54 13 ee 3e
       0.4649912
