data/data2/house_net.pt (torch, 6300 bytes, 6 tensors)

fc1.weight f4 [24, 9]
-0.16398434 0.13212058 -0.030914005 0.081475586 -0.014650014 0.3358099 -0.13444906 -0.2503722
0.24637786 0.274164 -0.282585 -0.12026151 -0.11230024 -0.0030131917 0.24110201 -0.24226297
0.20377293 0.21978441 0.2761006 -0.10927608 -0.13792603 0.25328252 0.2692591 -0.17826593
-0.08286136 -0.0102818 0.20515493 -0.051882032 -0.030176073 0.004086003 0.010864449 -0.0031084456
-0.16324905 0.2884734 0.27095264 -0.048623133 0.01943278 0.12940203 0.010690927 -0.19790739
0.19985177 0.34815094 0.018388133 -0.227919 -0.3123895 0.119779244 -0.3554197 0.050514594
-0.3526316 -0.2768835 0.016099349 -0.100394234 -0.16041617 -0.27672324 0.12068811 -0.25388628
-0.18897106 -0.20324202 -0.16816036 0.15882103 -0.30165988 -0.2966286 -0.05760465 -0.060884256
-0.028553218 -0.07613896 -0.21329424 0.18106447 -0.2394702 -0.31962177 -0.25547737 -0.41363773
-0.11190096 0.2394375 -0.2204351 -0.21176252 -0.060406867 0.19610487 0.054238312 -0.24012557
-0.040508326 -0.01856649 -0.25046775 -0.07729757 -0.28139552 -0.16861713 0.24481568 -0.32892665
0.23289184 0.23834221 0.024209315 0.28061852 0.36605945 -0.22700036 0.14022315 -0.10960495
-0.01611014 0.085575834 -0.1136032 -0.005903863 0.22709912 -0.29706362 0.13844657 -0.13259095
0.19694509 -0.11469176 -0.34881884 0.18948619 0.105498955 -0.023650311 0.00348049 -0.15627001
-0.0034377242 -0.21354179 0.25265974 0.17600033 -0.029172692 0.021041922 0.18857475 0.22839683
0.14646825 0.24724382 -0.22120157 -0.0020486815 0.37927416 -0.1347286 -0.18132024 -0.22559822
0.0166835 0.051930904 -0.09610927 0.093104884 -0.032434702 -0.26051188 -0.29784247 0.18611105
-0.15235268 -0.19405968 0.063205004 -0.0019303167 -0.40686086 -0.07465818 -0.1880317 -0.00084099616
-0.0779609 0.16512361 0.29235783 -0.26731816 0.18429105 -0.24706063 0.019498026 0.34824353
0.31383812 0.37878412 -0.057673126 -0.13081135 0.09943499 0.053834453 -0.09216299 0.33028084
0.12998512 0.1382219 0.11842349 0.053221215 -0.21145804 0.071212865 0.04655834 -0.48661873
0.015590884 -0.21309866 0.09810995 -0.10535514 -0.11364826 -0.27257508 -0.052202147 0.1114045
-0.2769483 -0.24114156 0.297263 0.10633676 -0.30213094 0.27663004 -0.022213783 0.01970811
0.17107645 0.07113574 -0.31289908 -0.37119395 -0.23062384 -0.24691384 -0.10158937 0.27804062
0.08029163 -0.22795217 0.23368995 -0.081260644 0.13017154 0.025099318 0.21622159 0.24328473
0.22509003 0.30219895 0.07085105 -0.27927843 -0.27106267 0.34553868 -0.20291749 -0.17252982
-0.30699378 -0.15680432 0.18841931 0.21892338 0.081186175 0.19951138 -0.12510312 0.2961838
00000000: 83eb 27be 9e4a 073e 5e3f fdbc acdc a63d
00000010: 9d06 70bc 46ef ab3e 04ad 09be c930 80be
00000020: 7a4a 7c3e 395f 8c3e fbae 90be ab4b f6bd
00000030: abfd e5bd f878 45bb 72e3 763e c913 78be
00000040: daa9 503e 2a0f 613e 0f5d 8d3e 23cc dfbd
00000050: 7b3c 0dbe 3fae 813e 54dc 893e 588b 36be
00000060: 37b3 a9bd ff74 28bc 2214 523e 4182 54bd
00000070: d033 f7bc e1e3 853b cd00 323c 10b7 4bbb
00000080: c22a 27be c9b2 933e 4eba 8a3e 0d29 47bd
00000090: 7e31 9f3c f781 043e ff28 2f3c 3ca8 4abe
000000a0: f1a5 4c3e d740 b23e b6a2 963c 9963 69be
000000b0: 84f1 9fbe d24e f53d 92f9 b5be 64e8 4e3d
000000c0: 218c b4be adc3 8dbe c8e2 833c 7e9b cdbd
000000d0: 2344 24be abae 8dbe 542b f73d 62fd 81be
000000e0: a181 41be ad1e 50be 3b32 2cbe fba1 223e
000000f0: 2a73 9abe b4df 97be daf2 6bbd c561 79bd
00000100: 70e8 e9bc beee 9bbd ce69 5abe f768 393e
00000110: ad37 75be 77a5 a3be eecd 82be 53c8 d3be
00000120: 552c e5bd 1b2f 753e bdb9 61be 46d8 58be
00000130: 316d 77bd b7cf 483e fe28 5e3d 7ae3 75be
00000140: 0fec 25bd c018 98bc 4f3d 80be 304e 9ebd
00000150: 1313 90be f8a9 2cbe f6b0 7a3e 1369 a8be
00000160: 337b 6e3e fb0f 743e 9d52 c63c 3bad 8f3e
00000170: 256c bb3e c872 68be a896 0f3e 8f78 e0bd
00000180: 6af9 83bc 6242 af3d cba8 e8bd 3175 c1bb
00000190: ac8c 683e b918 98be f0c4 0d3e ecc5 07be
000001a0: f9ab 493e 83e3 eabd 6298 b2be ab08 423e
000001b0: d60f d83d 4cbe c1bc ef18 643b 3f05 20be
000001c0: 714b 61bb b3aa 5abe 9e5c 813e 6e39 343e
000001d0: 92fb eebc 1c60 ac3c bd19 413e dce0 693e
000001e0: c6fb 153e 7c2d 7d3e aa82 62be 2c43 06bb
000001f0: 3930 c23e 4bf6 09be 03ac 39be 3803 67be
00000200: d6ab 883c 80b5 543d f0d4 c4bd c6ad be3d
00000210: 40da 04bd d061 85be cf7e 98be e593 3e3e
00000220: 5702 1cbe 95b7 46be a071 813d ae02 fdba
00000230: 1150 d0be 63e6 98bd 628b 40be 4c76 5cba
00000240: f7a9 9fbd 2a16 293e edaf 953e eddd 88be
00000250: cbb6 3c3e 76fd 7cbe 53ba 9f3c fa4c b23e
00000260: 64af a03e feef c13e a83a 6cbd 69f3 05be
00000270: 92a4 cb3d 8481 5c3d f3bf bcbd 921a a93e
00000280: d21a 053e 0b8a 0d3e 0488 f23d 7dfe 593d
00000290: 7588 58be 0dd8 913d f5b3 3e3d 1726 f9be
000002a0: e870 7f3c 8936 5abe dfed c83d 70c4 d7bd
000002b0: 6bc0 e8bd f68e 8bbe ebd1 55bd 0b28 e43d
000002c0: 2bcc 8dbe d0ed 76be db32 983e 16c7 d93d
000002d0: e8b0 9abe 74a2 8d3e aef9 b5bc e772 a13c
000002e0: aa2e 2f3e 9daf 913d 4f34 a0be 220d bebe
000002f0: a828 6cbe fbd6 7cbe 160e d0bd 575b 8e3e
00000300: f06f a43d 4b6c 69be 6b4c 6f3e fb6b a6bd
00000310: b04b 053e 169d cd3c 3169 5d3e a21f 793e
00000320: 007e 663e d2b9 9a3e 5b1a 913d 95fd 8ebe
00000330: bac8 8abe 72ea b03e 9ac9 4fbe a8ab 30be
00000340: 4a2e 9dbe 5091 20be fef0 403e 732d 603e
00000350: f044 a63d b64c 4c3e 081b 00be 67a5 973e

fc1.bias f4 [24]
0.22908352 0.11223949 0.011033076 0.07628347 0.05982366 -0.48074585 0.2958242 -0.46615714
-0.28824994 0.031009357 0.08661112 0.104431495 -0.018524438 -0.15343624 -0.014388561 0.20235182
0.46645835 0.24125345 -0.017507331 -0.14446568 -0.04231269 -0.041335505 0.09381018 0.09530123
00000000: df94 6a3e d1dd e53d 13c4 343c 823a 9c3d
00000010: a709 753d 5224 f6be 4576 973e 26ac eebe
00000020: 7f95 93be 5607 fe3c 2c61 b13d 2ee0 d53d
00000030: 90c0 97bc 641e 1dbe 00be 6bbc 5135 4f3e
00000040: a1d3 ee3e 250b 773e 896b 8fbc d0ee 13be
00000050: 1250 2dbd 6b4f 29bd 8d1f c03d 4b2d c33d

fc2.weight f4 [24, 24]
-0.009379962 0.10012046 -0.12812312 0.15795372 -0.21100628 0.018823458 0.053641796 0.051722247
0.12895086 0.005210653 -0.15350021 0.07511944 -0.22290659 -0.1102826 0.13215643 0.13756548
-0.20635024 -0.08053102 -0.054574285 -0.09566585 0.15854828 0.101950504 -0.021281432 0.10241895
-0.018396998 0.15078817 0.01857967 0.20160218 0.0033232498 0.10695598 0.17602147 -0.13020112
0.09634132 -0.012555281 -0.13693134 -0.1970057 -0.19090958 -0.15243275 -0.1476939 -0.16089675
-0.16029997 -0.011498185 -0.12879623 -0.093751095 0.04117529 0.114069365 -0.017231788 0.08406271
-0.055385105 -0.07521906 -0.029115885 0.022619955 -0.124719836 0.115780436 -0.091116995 0.07032077
-0.0762309 -0.15886271 -0.049826972 -0.19400354 -0.23991431 0.024673574 -0.09084604 0.040079013
-0.11917835 0.0026255967 0.121531695 0.05299974 0.1666737 -0.12704 0.07694231 0.19494821
0.055106487 0.16410936 -0.03188182 -0.026514385 0.093772866 -0.15571167 0.17355865 0.072889216
0.10820805 -0.027254682 -0.19704509 -0.0071131927 0.038486287 0.103307046 -0.13772476 0.07485326
0.02279071 -0.1374408 -0.093253806 0.05814248 0.13946635 -0.09445652 -0.21793698 0.0047332053
-0.18531391 0.1709639 0.08494141 0.011520642 -0.11115415 0.12605001 0.09905356 -0.040886395
-0.16991092 -0.15471624 0.10108717 0.13339423 -0.2501636 -0.10465432 -0.15343067 -0.2121544
-0.2255583 -0.1972694 0.00019398835 -0.11667658 -0.07183411 -0.11686891 0.13354294 -0.0409049
-0.045871418 0.012644504 0.131604 0.1460129 0.11118352 0.1411017 -0.0005218777 -0.054594148
-0.040808193 -0.10775556 0.11189827 -0.12634751 0.0830481 0.032839116 -0.09516876 -0.065787606
0.103698626 -0.16862233 -0.20166111 0.2025992 -0.13058574 -0.17867343 -0.045430172 0.022813626
-0.06234226 -0.17210059 -0.13855654 0.13514753 0.06329154 0.00065988 0.088623464 -0.11448622
-0.055313002 -0.13408108 0.0818566 -0.017014056 -0.23373929 -0.027258784 0.1684973 0.11261035
-0.030424805 0.16772293 -0.0027108723 -0.10494499 -0.022250326 0.14011034 -0.12872633 -0.18262137
-0.01567559 0.14582932 -0.12672137 -0.09121649 0.048056997 0.012633902 -0.15444513 -0.16382788
0.050889272 0.04998662 0.029491052 -0.16763474 -0.023342904 -0.18454002 -0.14693736 -0.05311593
-0.16284618 -0.07006092 -0.14545085 -0.07543074 0.1136165 0.10270015 0.00042486284 -0.054949313
-0.14027852 -0.0103379395 -0.12503769 -0.113843404 0.1430208 0.13862318 0.08630234 0.0637393
-0.19482863 -0.12171935 0.07661758 0.026149187 0.20098706 0.09484274 -0.053511303 -0.18897572
-0.14688201 -0.19854899 -0.0027840196 0.15626934 0.1933019 0.12209745 -0.18639353 0.16649383
0.045719165 -0.07850529 -0.16899459 0.14118123 0.18844843 -0.14030935 0.016235242 0.12375961
0.024808021 0.0451445 -0.18468644 0.13681157 -0.042262666 -0.15309994 -0.012903176 0.14228329
-0.14908572 -0.2768474 -0.07424741 -0.0746712 -0.111053914 -0.10902761 0.04342271 0.14648007
-0.104907185 -0.15258795 -0.29527548 -0.0064618327 0.15322974 0.030257411 -0.09819585 -0.10410315
-0.06269794 -0.07754824 0.041752342 -0.05718334 0.020255417 -0.08506089 0.05919855 -0.21449418
00000000: 6aae 19bc f50b cd3d b532 03be 9fbe 213e
00000010: 0812 58be a733 9a3c 80b7 5b3d b5da 533d
00000020: b20b 043e 20be aa3b 292f 1dbe 39d8 993d
00000030: a041 64be d8db e1bd 0454 073e f7dd 0c3e
00000040: 7a4d 53be 73ed a4bd 4989 5fbd 75ec c3bd
00000050: 7b5a 223e 6dcb d03d 6656 aebc 07c1 d13d
00000060: 4db5 96bc 3768 1a3e 6434 983c cd70 4e3e
00000070: e1ca 593b bd0b db3d f93e 343e 7153 05be
00000080: 994e c53d aab4 4dbc bb37 0cbe ddbb 49be
00000090: cd7d 43be 5517 1cbe 123d 17be 1ec2 24be
000000a0: ad25 24be e262 3cbc 29e3 03be 9300 c0bd
000000b0: 6ca7 283d 339d e93d ae29 8dbc 1229 ac3d
000000c0: 7edb 62bd 730c 9abd 7084 eebc 7c4d b93c
000000d0: 1d6d ffbd 4b1e ed3d 8c9b babd 5604 903d
000000e0: f21e 9cbd e8ac 22be 5e17 4cbd dda8 46be
000000f0: 19ac 75be 3c20 ca3c 7d0d babd e429 243d
00000100: c713 f4bd 3412 2c3b 9ce5 f83d 4116 593d
00000110: 83ac 2a3e c616 02be ee93 9d3d 81a0 473e
00000120: 57b7 613d 490c 283e 8396 02bd b234 d9bc
00000130: fd0b c03d e172 1fbe 5cb9 313e f146 953d
00000140: 2f9c dd3d 3645 dfbc 30c6 49be c915 e9bb
00000150: cca3 1d3d a592 d33d b807 0dbe aa4c 993d
00000160: 95b3 ba3c 48bd 0cbe dafb bebd cf26 6e3d
00000170: 44d0 0e3e 6c72 c1bd df2a 5fbe 0119 9b3b
00000180: eec2 3dbe 2911 2f3e c3f5 ad3d 13c1 3c3c
00000190: c9a4 e3bd 4113 013e 98dc ca3d 7e78 27bd
000001a0: 21fd 2dbe ef6d 1ebe ca06 cf3d 7f98 083e
000001b0: 7215 80be 0155 d6bd ee1c 1dbe 013f 59be
000001c0: c1f8 66be fd00 4abe 5a69 4b39 21f4 eebd
000001d0: c31d 93bd f858 efbd 7bbf 083e e58b 27bd
000001e0: abe3 3bbd e52a 4f3c 33c3 063e 6884 153e
000001f0: 2fb4 e33d f77c 103e 9fce 08ba 1d9e 5fbd
00000200: 7e26 27bd f2ae dcbd ec2a e53d 3e61 01be
00000210: 1f15 aa3d 4f82 063d d7e7 c2bd a7bb 86bd
00000220: f25f d43d 55ab 2cbe 4080 4ebe 2a76 4f3e
00000230: 45b8 05be 2bf6 36be fd14 3abd a4e3 ba3c
00000240: 995a 7fbd 233b 30be c4e1 0dbe 1d64 0a3e
00000250: ff9e 813d ccfb 2c3a 3880 b53d c077 eabd
00000260: e38f 62bd 8d4c 09be 6fa4 a73d 1061 8bbc
00000270: 5a59 6fbe d04d dfbc 8e8a 2c3e 41a0 e63d
00000280: 713d f9bc 8fbf 2b3e e4a8 31bb 66ed d6bd
00000290: 5146 b6bc 1679 0f3e d6d0 03be 1901 3bbe
000002a0: 186a 80bc 4854 153e 3fc3 01be b6cf babd
000002b0: 6ad7 443d 6dfe 4e3c dd26 1ebe 7fc2 27be
000002c0: 4571 503d c5be 4c3d 3897 f13c 71a8 2bbe
000002d0: 9e39 bfbc 0ff8 3cbe bf76 16be 1790 59bd
000002e0: 26c1 26be 1a7c 8fbd 11f1 14be 6f7b 9abd
000002f0: c4af e83d 7554 d23d 20c0 de39 8812 61bd
00000300: 2ca5 0fbe 7660 29bc e109 00be bb26 e9bd
00000310: 0b74 123e 3cf3 0d3e 48bf b03d c089 823d
00000320: 2881 47be ff47 f9bd aee9 9c3d d236 d63c
00000330: 8dcf 4d3e e93c c23d ab2e 5bbd da82 41be
00000340: 3d68 16be 6d50 4bbe 1974 36bb 1205 203e
00000350: eff0 453e 3a0e fa3d f2dd 3ebe 5c7d 2a3e
00000360: 0544 3b3d 62c7 a0bd eb0c 2dbe d091 103e
00000370: a0f8 403e 41ad 0fbe c5ff 843c ae75 fd3d
00000380: 313a cb3c 70e9 383d 711e 3dbe 5518 0c3e
00000390: 9e1b 2dbd 3bc6 1cbe d867 53bc b6b2 113e
000003a0: eda9 18be f1be 8dbe 070f 98bd 37ed 98bd
000003b0: 3c70 e3bd de49 dfbd 03dc 313d dffe 153e
000003c0: 94d9 d6bd 0440 1cbe 592e 97be c8bd d3bb
000003d0: 42e8 1c3e 64de f73c e81a c9bd 0834 d5bd
000003e0: c767 80bd 9dd1 9ebd 8104 2b3d 1439 6abd
000003f0: b0ee a53c 6734 aebd 2e7a 723d 5da4 5bbe

fc2.bias f4 [24]
-0.12470592 -0.04504473 0.06766374 -0.118006684 -0.40698108 0.034408845 -0.08895918 0.06138752
-0.02247865 -0.039844155 -0.22658381 -0.102504164 -0.17327578 -0.07856794 -0.13197084 -0.0019152355
-0.12450057 0.08520888 -0.21291256 0.022984026 0.084119916 -0.05510822 0.014550639 -0.17539825
00000000: d165 ffbd d380 38bd 4993 8a3d 7dad f1bd
00000010: d35f d0be 4af0 0c3d 3b30 b6bd 7b71 7b3d
00000020: 2525 b8bc a033 23bd 9605 68be b4ed d1bd
00000030: 356f 31be 3ae8 a0bd 5d23 07be a408 fbba
00000040: 28fa febd fe81 ae3d c005 5abe ff48 bc3c
00000050: 1047 ac3d 28b9 61bd ce65 6e3c 999b 33be

fc3.weight f4 [5, 24]
-0.1093438 0.017279701 -0.0038007698 -0.0783811 -0.032194465 -0.08165906 -0.0237832 -0.20390676
0.18760791 -0.005047913 -0.1793622 -0.023017697 -0.0014856085 0.21096581 -0.008384349 -0.028283669
0.020086084 0.044706482 -0.1191748 -0.16292156 0.1166878 -0.014056682 0.048101522 -0.09926433
0.09868981 0.14393973 0.0035727916 0.23906223 -0.050183814 0.041120455 -0.011097971 0.0773868
0.09843729 0.05195409 0.014288443 -0.022902956 -0.0017700724 0.0546094 -0.14436376 -0.052845195
0.16396877 0.0509584 -0.08469812 0.118516795 -0.010068616 0.15552782 0.012975111 0.11171174
0.02477388 -0.06769897 0.013272453 -0.09035525 -0.15227316 0.11416502 0.0044254228 -0.1270202
0.035244804 -0.118138246 -0.032917097 -0.04014903 0.1392168 0.18553106 -0.057653595 0.047856107
-0.09449874 -0.00082226825 0.012284808 0.15824418 0.1284443 -0.11631987 0.012237898 0.17090823
-0.008828611 -0.063810356 -0.016724894 -0.1580627 0.1330963 -0.12753457 -0.058178242 0.16552794
0.038427237 0.06580064 0.058573525 -0.023226222 -0.00837833 0.1400319 -0.068691365 0.061972283
-0.18344215 0.10907592 -0.1051563 -0.018387351 0.16367438 -0.16047311 0.022346193 0.08469752
-0.03832858 0.041504305 -0.1540033 0.05047921 -0.1387655 0.15956852 0.09454723 -0.008214087
-0.15866157 0.123842746 0.031626847 0.16038854 0.13561168 0.06747505 -0.005998158 -0.098538294
0.063788824 -0.031749137 0.12683225 0.07325648 0.08788684 0.09236491 -0.12662435 -0.10870517
00000000: a4ef dfbd 298e 8d3c 5616 79bb 4586 a0bd
00000010: 58de 03bd de3c a7bd fcd4 c2bc efcc 50be
00000020: 4a1c 403e f768 a5bb b9aa 37be 9c8f bcbc
00000030: c0b8 c2ba 6c07 583e 825e 09bc 27b3 e7bc
00000040: 928b a43c 251e 373d eb11 f4bd e9d4 26be
00000050: 03fa ee3d ff4d 66bc 1a06 453d 194b cbbd
00000060: e21d ca3d f064 133e 7f25 6a3b bbcc 743e
00000070: 8b8d 4dbd ec6d 283d 44d4 35bc f87c 9e3d
00000080: 7d99 c93d d0cd 543d 131a 6a3c fb9e bbbc
00000090: c601 e8ba 1bae 5f3d 18d4 13be 3474 58bd
000000a0: 6ee7 273e c1b9 503d 3576 adbd efb8 f23d
000000b0: d6f6 24bc af42 1f3e 8f95 543c 20c9 e43d
000000c0: 98f2 ca3c c2a5 8abd b474 593c 2c0c b9bd
000000d0: 7fed 1bbe 5acf e93d 2303 913b 9511 02be
000000e0: db5c 103d 77f2 f1bd 14d4 06bd 4f73 24bd
000000f0: d98e 0e3e dbfb 3d3e 2d26 6cbd c404 443d
00000100: 8e88 c1bd 7d8d 57ba 3846 493c c30a 223e
00000110: e786 033e 1d39 eebd 7781 483c 9102 2f3e
00000120: e1a5 10bc 01af 82bd a502 89bc 30db 21be
00000130: 654a 083e 6c98 02be 4f4c 6ebd 2880 293e
00000140: e165 1d3d 7cc2 863d cbea 6f3d eb44 bebc
00000150: 4345 09bc 8664 0f3e 0fae 8cbd a6d6 7d3d
00000160: 42d8 3bbe 3263 df3d 305c d7bd 12a1 96bc
00000170: 429a 273e 1053 24be 5d0f b73c e575 ad3d
00000180: 6efe 1cbd 6b00 2a3d 0bb3 1dbe 4ac3 4e3d
00000190: 8b18 0ebe ee65 233e faa1 c13d 6194 06bc
000001a0: 2e78 22be 44a1 fd3d 278b 013d e53c 243e
000001b0: cadd 0a3e 5c30 8a3d 328c c4bb 72ce c9bd
000001c0: b7a3 823d 620b 02bd 50e0 013e 7e07 963d
000001d0: 04fe b33d d029 bd3d d0a9 01be d1a0 debd

fc3.bias f4 [5]
25.220858 24.543072 25.296093 41.0474 25.594349
00000000: 51c4 c941 3658 c441 665e ca41 8a30 2442
00000010: 3ac1 cc41
